gnn_output/model_approach_a.pt (torch, 289815 bytes, 21 tensors)

feat_enc.0.weight f4 [64, 133]
00000000: 4510 873b 920f d2bc 9866 3abe 0bc5 86bd
00000010: 7ae6 45bd 19c4 3fbd d172 0abe a31c d3bd
00000020: 8710 cdbd 5bf0 d9bd 3d69 6e3c d3ab 27bc
00000030: 3a28 c1bc 25a6 aebd abbf 04be 7a3e 27bd
00000040: d0ab aa3c af3e 21be 585f 8fbd 67e7 fbbb
00000050: d2cf 663b 8167 613d 460a 163d 9077 7abd
00000060: f178 a7bd 17eb d23c e562 2d3d 8cb4 4b3d
00000070: e87d 743d 31fb 9c3d 6d41 14bd 68bb acbd
00000080: d5ee 2d3d fb4b ab3d 9259 81bd 26cb 32bd
00000090: 7f0c 983d 28b3 8a3d 98e0 07bc 2cb9 4abd
000000a0: 6e39 823c d1ee adbd ae49 0cbd 79d9 37bc
000000b0: 744c a9bc 6e58 123d 327e f03a 6bea 8bbd
000000c0: 965d 0bbc b8fb 033c 15eb 5d3d 08fc 9f3b
000000d0: 3db1 f7bc b853 0a3d 6aa8 233d 82d3 863c
000000e0: b0b7 3ebd ff26 c03c 2c19 4b3c 5c5f 473d
000000f0: 0216 c2bc 198b b8bb f253 393d f9bc 3cbc
00000100: ad59 393d 1a44 64bc 4a3f 5d3c 1833 22bd
00000110: 8352 e0bd 6c47 cbbd 1eac 57bd cd05 343c
00000120: 1c56 aabd 653c 50bc f856 bfbd a1d1 81bd
00000130: 87a7 2fbd 5e0b 1cbe 857a 5ebd 3c66 c3bc
00000140: 24a0 16bd b510 8dbd 45c3 a3bd 7f0f 33bd
00000150: 2250 37bd 7216 07be b69f 66bd 075a 28be
00000160: 90a5 b1bd 44af f5bd 1a77 01be 4953 24be
00000170: f821 b4bc b8d4 d9bd 04fa ddbd bb75 02be
00000180: e1ea 19be 5b4b 89bd 7c4f 873c 2c89 8abd
00000190: c8fd 17bd 478a 323d ba96 943d d808 e3bc
000001a0: 92f0 aebd 60ac ad3d 6f44 403d 3328 803d
000001b0: c88e 81bc 6c5e 92bc 58eb 0a3c ebd8 ad3c
000001c0: bee2 123b d455 38bd f79f 9e3d bcde 253d
000001d0: 7b5a 00bc bf46 97bd 6eec 2ebd adbf f7bc
000001e0: c2f4 6cbc 6997 c43c dd69 6dbc 28cc f53c
000001f0: b6b1 66bd 7c6e 9bbc 8586 203d 4e68 ae3d
00000200: 6505 96bd 6bb1 133c 8791 3b3d dd42 19bc
00000210: 5280 71ba 49e0 3e3d da1d 43be 8128 cebd
00000220: 62dc 3abe bd0c 2bbd 8565 b0bb 483d c7bd
00000230: 3fd3 69bd 997f 10be 0674 81bd 7f88 13bc
00000240: 8308 70bc ed1c 0ebd 6716 85bd d446 bfbd
00000250: 86b2 4e3c 3a22 04bd 5978 67bd d0f0 2c3d
00000260: cfc7 c8bc 86c4 d8bb 7a91 a73d eff3 9e3d
00000270: 9b40 b0bd 928c 97bd 7e20 ccbc 808d b33c
00000280: fcda 39bd 1cfb 2f3d 5053 9fbd 79bb 2bbc
00000290: bfef 643d 7a52 b5bc e8d6 b5bc bf14 9a3c
000002a0: a109 883d 3758 9f3c 7fcf 0c3b 3e9e 0cbb
000002b0: d67d 96bd 5ba9 0cbd 38e0 b03d 7fb5 6dbd
000002c0: 6196 273d 76aa f6bc ec6a f03c 9cac 1d3d
000002d0: f62d 7b3d 7463 5cbd 5642 34bc 1a1b 72bd
000002e0: acc3 903c 0d1e 28bd d16d 0c3c 8219 92bd
000002f0: d354 a0bc b858 94bd 7342 96bd c04e f53c
00000300: c406 683b 7da7 02bd d478 1cbd 8585 9a3d
00000310: f4ea 163c 0467 c53c f11a b13d 7c63 953d
00000320: ab95 51bc 3edc 863c 1d4d 88bd 01fe c9bd
00000330: 7826 473c 5e12 62bd faf7 58bd d4a5 c1bc
00000340: 7f4d ca3c 8483 68bd 2077 5ebd a0cb eebb
00000350: 6f6b ecbc f063 4abb 0adb 263d d184 8fbd
00000360: 5655 9e3c d4ac f2bd 4af7 59bd b532 1cbd
00000370: 5fcf 15be 2d3c 1bbe 72f2 b8bd c531 9ebd
00000380: 5fa5 2cbc 30d5 d0bd 2e19 0f3d 9f0b 88bd
00000390: bfe4 61bc ad7f ce3c 79ee 3c3d 82ac 0fbd
000003a0: 5911 223d 4a8e cc3c 4d9a 90bd e12c 7c3d
000003b0: 92c9 a53d f384 17ba 18f7 ac3d ecf0 09bc
000003c0: 02ee 3cbb 24a9 13bc bc97 9e3c 5f6e 203d
000003d0: f387 8bbd e419 f0bc 0b05 81bd bf22 89bc
000003e0: 5ec4 c73c 0902 60bd df47 733c 4411 aabd
000003f0: 3f1c 0d3d f4cf 563d 25d0 e9bc f259 483d
0.0041218125 -0.02564219 -0.18203199 -0.06580552 -0.048315503 -0.046817873 -0.13520361 -0.103081964
-0.10012918 -0.10641547 0.014551458 -0.010233837 -0.023578752 -0.08527783 -0.1296374 -0.040831067
0.02083388 -0.15746568 -0.07000607 -0.0076874974 0.0035219085 0.05503035 0.03663089 -0.06114918
-0.081773646 0.025746865 0.04233064 0.04973273 0.059690386 0.076650985 -0.036195207 -0.084341824
0.042464096 0.083641015 -0.06315912 -0.04365077 0.074242584 0.067724526 -0.008293293 -0.049493
0.015896525 -0.08492816 -0.034249954 -0.011221283 -0.020666339 0.035728864 0.0018348156 -0.06831821
-0.008506199 0.00805562 0.05417927 0.0048823394 -0.030235881 0.033771247 0.039955534 0.016458277
-0.046561897 0.023456095 0.012396138 0.048674926 -0.023692135 -0.005631816 0.045246072 -0.011519664
0.045251537 -0.013932252 0.013503859 -0.039599508 -0.10953238 -0.09925732 -0.052654378 0.010987711
-0.08317205 -0.012709712 -0.0934276 -0.06338812 -0.042884376 -0.15238711 -0.054316062 -0.02385246
-0.036773816 -0.06887952 -0.07996229 -0.04371595 -0.044754155 -0.13192156 -0.056304656 -0.16440593
-0.08674157 -0.1199632 -0.1264309 -0.16047396 -0.021988854 -0.10636276 -0.10838702 -0.12740223
-0.15031005 -0.06703826 0.016517393 -0.06764445 -0.03710726 0.043588903 0.07255311 -0.027714178
-0.08541979 0.084801435 0.046940263 0.062576674 -0.015815154 -0.01786729 0.008478962 0.021221599
0.002241298 -0.045003727 0.077453546 0.04049562 -0.007834072 -0.073865406 -0.042705946 -0.030242765
-0.014462652 0.02399798 -0.014490572 0.030004576 -0.056321822 -0.018973581 0.039190788 0.08515988
-0.07325248 0.009014468 0.045793083 -0.00935432 -0.00092125416 0.046600614 -0.19054356 -0.10066319
-0.18248132 -0.041760195 -0.005383196 -0.09728485 -0.057086226 -0.14111175 -0.06320958 -0.009004711
-0.014650467 -0.034695555 -0.064984135 -0.09339681 0.0126158055 -0.032259203 -0.056511257 0.042221844
-0.024509339 -0.0066152243 0.08182044 0.077613704 -0.086060725 -0.073998585 -0.024917837 0.021918058
-0.045374855 0.042964086 -0.077795625 -0.010481709 0.055892702 -0.022134054 -0.022197202 0.01880872
0.066424616 0.019451244 0.0021485982 -0.0021456624 -0.0734822 -0.034341197 0.08636516 -0.058034416
0.040914897 -0.030110579 0.02934786 0.03849469 0.06132313 -0.053805783 -0.011002144 -0.059107877
0.017671429 -0.041044284 0.008571104 -0.071337715 -0.019571697 -0.07243484 -0.07336893 0.029944777
0.0035404423 -0.03189801 -0.03820117 0.07544998 0.009211291 0.024096973 0.08647717 0.07294366
-0.012792031 0.016462442 -0.06655333 -0.098629005 0.012155168 -0.055193298 -0.052970864 -0.023638643
0.024695156 -0.056766048 -0.054312825 -0.0072874576 -0.028859822 -0.0030882321 0.040736236 -0.070077546
0.0193278 -0.118493706 -0.05321435 -0.038134295 -0.14629887 -0.15159674 -0.09030618 -0.077243365
-0.010537474 -0.10196912 0.034936123 -0.066428415 -0.0137874475 0.025207365 0.046125863 -0.035076626
0.039567325 0.024970192 -0.070606805 0.061566237 0.08095087 -0.0005780004 0.08445567 -0.008419257
-0.0028828387 -0.009012494 0.019359462 0.039167758 -0.0681304 -0.02930922 -0.0629979 -0.016740201
0.024385627 -0.05468944 0.014848678 -0.083040744 0.034450766 0.052444413 -0.028541634 0.048913904

feat_enc.0.bias f4 [64]
00000000: 2112 9e3c ea76 343d 6c6f 5abd ddb1 33bd
00000010: b6f3 54bd 5355 2f3d 5a1a debc 5a93 99bd
00000020: 3999 e83b 3ce5 96bc 14e0 f2bc 6663 9ebd
00000030: a65d 09bd b3fb 26bd 076d abbc 90a0 9ebd
00000040: 8d0c 54bd a35f 123d 9243 513c 3a80 b8bc
00000050: 54c4 d53c ade5 98bd 1bea 1c3d ae5e 34bd
00000060: 4b46 b839 6c8b 9dbd 48dd 423d 87ca a9bd
00000070: c2af 643d 499d 9ebb 821f 74ba 8f57 8a3d
00000080: e1b1 893d e2bb 8ebc d117 b1bd 29f5 8ebd
00000090: 3574 8d3d 184d d1bd 26ef 97bd fa78 833d
000000a0: 0537 a73d 30c4 2bbb 34e5 533d c0bd 773c
000000b0: 6382 71bd b17d 06bd 0cdd 593d 19c8 8a3b
000000c0: 864a 56bd 35c6 ae3d b968 bdbd 8061 5ebc
000000d0: b44a a73d 824a 6abd 3d1b b0bd 2904 8f3b
000000e0: 14e4 3fbc 2588 9cbd b651 423d 48d1 243d
000000f0: e5a5 ba3d e719 4fbc 6e03 f43c d8cf 80bd
0.019295754 0.044058718 -0.053328916 -0.043870796 -0.051990233 0.04280598 -0.027112175 -0.07498808
0.0070983437 -0.018419854 -0.029647864 -0.077338025 -0.033536576 -0.040767383 -0.020926012 -0.077454686
-0.05176978 0.035735738 0.012772458 -0.02252208 0.026094593 -0.07465682 0.038309198 -0.044035606
0.00035147587 -0.07692608 0.04757431 -0.08290582 0.05583168 -0.004840527 -0.00093125564 0.06754982
0.06723381 -0.017423574 -0.08647121 -0.06980354 0.0690693 -0.102197826 -0.07418661 0.06419559
0.08164791 -0.0026209466 0.051732257 0.0151209235 -0.058962237 -0.032834712 0.053189322 0.0042352793
-0.052317165 0.08533899 -0.0924849 -0.0135730505 0.08168545 -0.057199962 -0.08598945 0.0043645096
-0.011712093 -0.07643155 0.047441207 0.04023865 0.09113673 -0.012640453 0.029786792 -0.06289643

feat_enc.2.weight f4 [64, 64]
00000000: d71d 0f3d 2cb6 243d a44d c2bc 84c8 233d
00000010: 717f 1a3c c362 09be 5457 04be 7a1d 293d
00000020: 1031 473c b7d1 ffbb 84ce 543d 65d8 963d
00000030: adfb c0bd f944 d7bd e786 bbbc 8093 01bd
00000040: 86d4 27bc dc49 83bd 78b4 65bd c884 db3d
00000050: 80c2 c1bc ea0d 86bd 4803 8b3c af03 ef3d
00000060: 24ab 11bd a5cd 913d c92c 95bc ae4a 29bc
00000070: 7304 413d 4466 963d 075c 82bd 54a4 413d
00000080: 7ae7 cf3d 5496 883d d4b9 29bd eac9 74bd
00000090: 803a 9a3a bef2 97bd 202a c13b 1ed2 87bd
000000a0: 149a 053d e000 483c 1485 91bd dcb7 803d
000000b0: cc19 823d 0ab1 093d 2dc5 dabd 5405 b1bd
000000c0: 1261 88bd 6cac 4f3d 11ba 733d c882 86bd
000000d0: 10c8 3dbc 5d43 e03d 957f 95bd bb57 653b
000000e0: 3ee3 c93d 7eb4 04be 5449 ccbd b56f 06be
000000f0: e020 d33d c5af 503d c649 aebc 2fd9 a63b
00000100: 22d3 593d 58c4 04bd ce9c 503c 56b9 d7bd
00000110: 6915 c1bd 6cad f8bc 919a f03c 3c5e 11bc
00000120: 6463 9b3d c831 cd39 f008 23bd e0b2 9a3d
00000130: 86e6 3b3d 58a5 003d 26c3 113c 8a62 5abd
00000140: f78b 04be 6088 893b f8ee 02bd 59ef f5bc
00000150: a05d f3bc 68de acbc 2c4b fdbd 5fe1 6cbc
00000160: 3515 b1bd 57ec 593d bcd6 8f3d 7c63 d9bd
00000170: e0d5 a2bd ec23 47bd 8cbd 3b3d c677 dd3d
00000180: aa6a efbd 12f3 593d 254e 823d 4f0d c13d
00000190: e073 473c 2941 16bc 9811 b83d 0082 71bd
000001a0: aab0 c9bd 3067 5ebc 314b 023d 6af9 14bd
000001b0: 12a4 c7bd 717a a3bd 8e39 373d 08f0 fc3d
000001c0: b074 a93d 6041 7e3c ea31 7d3d a229 973d
000001d0: 68c2 17bd 5c37 153e 9d00 3e3d b142 a6bd
000001e0: 6cab 8f3d e2aa 20bd 0411 bbbd b258 00be
000001f0: c844 8e3c d294 d2bc 3402 f1bc ae80 5c3d
00000200: 14ea ce3d 267e 983d 5504 c23d 28cc ae3c
00000210: 4046 b6bc d9f1 27bd 87b4 99bc f32a 023d
00000220: 1023 54bc 21e9 ca3d ac87 b33d 1bf2 c03d
00000230: aca1 2b3d d02b 49be 648a 493d 7fb1 b9bd
00000240: 4ae2 e9bc 6c9e 1fbd 48e2 b3bd 63bd cf3d
00000250: c02b 493c 1881 b93c 6890 afbd d68c cd3d
00000260: 17a8 b33d 05a0 6c3d 1cd7 c3bd b709 c03d
00000270: 9827 b7bd 80bc b0bc e398 8ebd 5af0 963d
00000280: 849c 3d3d 1c89 053d 5847 053d 8c53 6d3d
00000290: 1615 a4bd 0d0a cd3c e86b 2cbd d8b0 b33c
000002a0: 52f4 b83d e677 db3d 5c4a 44bd 7f67 b03d
000002b0: fb01 b7bd d6ef c3bd 7157 e33c ec78 a83d
000002c0: b06a ffbd 9aff c83d 4111 ebbd c0d9 5f3c
000002d0: dc50 37bd 114b 13be 32c6 413c 31ed 69bd
000002e0: ace3 e13d 91ba 28ba 4143 923d c4c6 d0bd
000002f0: dec1 943c 5367 f0bd 036b 973c 29da 53bd
00000300: 62c1 09bb 8834 76bd 47aa 6fbc 7857 163d
00000310: 9bf5 57be ec51 4b3d dbde 91bd 2f76 b93d
00000320: 7e4d b43d 89a4 11bd 1ca7 6e3d 1569 35be
00000330: 142e 6ebe 6256 993e 5ff3 c43c 408e 153d
00000340: e093 80bc 6efd c6bd c0cf ddbb 2532 10bc
00000350: 86ef 953d a0dc b6bc 0040 f53c fd2d ad3d
00000360: d5e0 97bd 51fa 8d3d ce9b b53c b81f debc
00000370: 533e 54bc a6cd e13d bea1 eabc ac73 b13d
00000380: 706e 7abd 315d ab3d c425 12be dfeb 09be
00000390: b22a fe3d 9ff5 25bd 4022 de3d b6e2 a8bd
000003a0: fcb5 96bd e470 1fbd a25e 18be 4402 323d
000003b0: 504c f03d 3f86 b5bd 3f1e 0cbd 4845 a2bd
000003c0: 0c2d dbbd 2cde c1bd 2467 4dbd 7260 813d
000003d0: 9032 68bd 5ac2 3b3e d2d0 f53d 2b11 f93d
000003e0: e02a e93c f6f6 603d f3f2 f7bb f13a f0bd
000003f0: 8b7c 303e 3250 14be 8a34 593c 4504 cc3d
0.034940567 0.040212795 -0.023718663 0.03998615 0.009429798 -0.13416581 -0.12923938 0.041287877
0.0121576935 -0.0078069824 0.05195476 0.07365493 -0.09423003 -0.10511202 -0.022891475 -0.031634808
-0.010243541 -0.06410572 -0.05608031 0.107186854 -0.023652315 -0.06545623 0.016969338 0.116706245
-0.035563603 0.07119302 -0.018209832 -0.010332746 0.047123384 0.07343724 -0.06365209 0.047275856
0.101515725 0.06669298 -0.041436985 -0.059762873 0.0011766702 -0.07419346 0.0058949143 -0.066318735
0.032617643 0.01220724 -0.07105461 0.062850684 0.063525766 0.033616103 -0.106821395 -0.086435944
-0.0665914 0.050701544 0.05950362 -0.06567913 -0.011583343 0.109503485 -0.07299725 0.0034994918
0.09857796 -0.12959477 -0.09974924 -0.1312855 0.10309005 0.050948877 -0.021275412 0.0050918083
0.053179868 -0.03241381 0.012732698 -0.10533397 -0.09427912 -0.030356131 0.029370578 -0.008872565
0.07587317 0.00039137737 -0.039803445 0.07553649 0.04587414 0.031407684 0.008896625 -0.05331663
-0.12944017 0.0041971654 -0.03196618 -0.030021356 -0.02970773 -0.021102145 -0.123678535 -0.0144580295
-0.08646623 0.053203907 0.07023379 -0.10614678 -0.0795095 -0.048618242 0.045835063 0.108138606
-0.116902664 0.053210326 0.06362561 0.094263665 0.012173623 -0.009170809 0.08987731 -0.05896187
-0.09848149 -0.0135744065 0.03180999 -0.036370672 -0.09748091 -0.07982338 0.044732623 0.1235047
0.082742095 0.015518516 0.06181518 0.07380988 -0.037050635 0.14571899 0.046387304 -0.08118189
0.07015118 -0.039225467 -0.09134105 -0.12533835 0.017366782 -0.025705729 -0.029419996 0.053833656
0.101032406 0.07445936 0.094734825 0.021337584 -0.022250295 -0.04100213 -0.01876284 0.03177924
-0.012947813 0.09907747 0.08766112 0.09421178 0.04190223 -0.1964562 0.049204245 -0.09067058
-0.028550286 -0.038969442 -0.08783394 0.101435445 0.012278497 0.022644565 -0.08572465 0.10036628
0.08772295 0.057769794 -0.09562513 0.09376853 -0.08943099 -0.021574259 -0.069627546 0.07370062
0.046291843 0.03260146 0.03253874 0.057941005 -0.08011834 0.025029207 -0.042095095 0.021934912
0.090309754 0.10716228 -0.047922477 0.0861349 -0.089359246 -0.095672294 0.027751656 0.08226189
-0.12471521 0.09814377 -0.114779 0.0136627555 -0.044754848 -0.14384104 0.011827039 -0.05711097
0.11029753 -0.0006436492 0.07141734 -0.101941615 0.01815885 -0.117384575 0.018483644 -0.051721726
-0.0021019806 -0.06010869 -0.014628 0.03670451 -0.21089785 0.049638674 -0.071225844 0.09055745
0.08803843 -0.035557304 0.058264837 -0.17715867 -0.23259765 0.29948717 0.02404183 0.036512613
-0.015695512 -0.097163066 -0.0067691505 -0.008801018 0.07321076 -0.022322 0.029937744 0.08456037
-0.0741593 0.0693251 0.02216902 -0.027114734 -0.012954312 0.110255525 -0.028641578 0.08664641
-0.061140478 0.08367384 -0.14272219 -0.13468884 0.12410487 -0.040517446 0.108463764 -0.08246367
-0.073589295 -0.03892602 -0.1487985 0.043459192 0.117333055 -0.08863496 -0.034208532 -0.079233706
-0.107019514 -0.09466204 -0.05014719 0.063172236 -0.056688845 0.18335858 0.1200272 0.12161478
0.028462827 0.05492302 -0.0075668036 -0.11729992 0.1723501 -0.14483717 0.013257155 0.09961752

feat_enc.2.bias f4 [64]
00000000: 71e7 333d 9740 54bd 5245 a33c f6f3 05bd
00000010: f8ce 693c 1ec1 88bd 5571 a8bd 6e00 de3b
00000020: 6854 483c 2bb4 b43d b0e5 d23d 3619 c9bc
00000030: d283 30bc 95c7 abbd 0749 de3d 93bb b43d
00000040: e037 583c c078 eebd b81a 9f3d 01f4 08bc
00000050: 6d53 b93d 1c9d dabd 00e4 c8bc 5cb5 91bd
00000060: feae 7cbd 2436 08bd de8f 83bc 7de2 00be
00000070: 718e 0dbe 8070 633d ee6c dabd 713e cfbd
00000080: d412 d1bd d7f2 39bd 8ca6 5d3e e096 973b
00000090: dcec e2bd 73d7 933c 9282 08be e0a4 ffbc
000000a0: 996e 8cbc b0d4 cc3c ff26 75ba bd9c 043e
000000b0: 8483 11bc 9f44 febd 9fed f93c 70df 98bd
000000c0: e8af b63c ba0b ee3d fab1 e43d c36d c6bc
000000d0: dc38 223d 62f4 eb3b dca1 a6bc f08f 69bc
000000e0: baf8 a7bd c519 ac3d c470 0b3d f384 a4bd
000000f0: 86f3 61bd cabd 1a3d f365 0d3d ab1d e43a
0.04392189 -0.05181941 0.019930515 -0.032703362 0.014270537 -0.06677459 -0.08224741 0.0067749536
0.012227155 0.08823427 0.10297716 -0.024548154 -0.010773616 -0.083876766 0.108537726 0.088248394
0.013196915 -0.11644125 0.07768768 -0.008358956 0.09049115 -0.106744975 -0.024522781 -0.0711467
-0.061690323 -0.033254758 -0.016059812 -0.12586398 -0.13823868 0.05552721 -0.10665308 -0.10119332
-0.10208669 -0.045397606 0.21645564 0.00462614 -0.110803336 0.01804707 -0.13331059 -0.031206548
-0.01714258 0.025003761 -0.0009351819 0.12950416 -0.008881453 -0.12415432 0.030508814 -0.07464492
0.022300676 0.116233304 0.11166759 -0.02422226 0.039605007 0.0072007636 -0.020340852 -0.014255509
-0.08201738 0.08403353 0.03404309 -0.080331706 -0.055163883 0.037778653 0.034521054 0.0017403861

msg1.0.weight f4 [64, 128]
00000000: 3be2 a7bd 1aaa 3d3d d639 58bd 4ff9 05bd
00000010: ef27 ccbd fc4f 1abd 67de 883d 3228 2f3d
00000020: 1fe3 b6bd 01f9 36bd c06a 46bd defc 303d
00000030: 0806 5dbd 6c63 afbd f269 ef3c ab1e 49bd
00000040: 20ed 01bc 31af 813c 33f6 10bd e4e4 933d
00000050: bba8 833d 9a47 e23c c272 1abd 78e7 8dbd
00000060: 70fa 073d 86c7 aa3d d685 3a3d f4d1 563c
00000070: 2991 80bd 3121 86bd aee9 b4bd e04d 933d
00000080: 507e a03d 2b35 cb3c a069 963c 1b7e e83c
00000090: eef1 80bc c564 90bd c783 24bd e304 973d
000000a0: 8216 b53c 7b49 a53d 418a ba3c b383 3ebd
000000b0: 73e3 233c 5a48 8cbd 6e20 45bd 5c7c 93bd
000000c0: 5f15 56bd 0fa1 edbc cc5c 463d 1dd5 9cbc
000000d0: 9db2 833d ac15 6fbd 9d92 293d 761d 4f3d
000000e0: 67a0 c63c 5984 583c 8851 f13b 2f6c 623d
000000f0: fe84 863d deb1 2abc ee82 75bd b1c8 473d
00000100: 489b 893d ea89 cbbd 793a 243d 14f6 123a
00000110: b8c0 5abd c142 9ebd f69f 303d 4408 a43d
00000120: 5cfe 23bd 7a1b c73b 12fa 9cbc 19e9 98bd
00000130: 1037 4d3d 4a3e bcbd b46b e4bd f5c0 98bd
00000140: 6afc 053d 7900 85bd c4e6 56bd e147 1abd
00000150: c440 16bc 5216 c1bc 7adb 573d ea70 8f3d
00000160: a8f9 65bd 946f ddbc 80c3 643d 8d4e e93c
00000170: da10 b13d 8f8e 2bbd 6acf 85bd ac46 1b3c
00000180: 52ed 20bc a471 eb3c c8b7 683b 92b9 4cbd
00000190: c8ec 953b 40cb 3b3d f795 b93d d345 9a3d
000001a0: 9d12 3a3d eed6 f6bc 69b0 ae3c 8a08 a9bd
000001b0: dbcb 983c de28 aa3b 2552 b43d e45d 8bbc
000001c0: 65a7 fbbc ce7d 7abd fc49 efbb 0a57 d7bc
000001d0: ba35 713c cd9c dfbb d97f 613c 165b e33c
000001e0: 9b26 95bd 3c90 88bd 4011 803c e62a fb3c
000001f0: 44d0 f73b c10e fb3c 4e65 1e3d c32e 0cbd
00000200: 80e8 a23c 2a8f f7bd 45e6 93bc 944e 44bd
00000210: 35c1 9fbe b51d 79bd 0291 8cbe 569b 8a3d
00000220: ce8c d0bb 26e5 87be 87ac ff3c 117d 433b
00000230: 9b5e cdbc ce76 3bbc c45e 833c 608a 44be
00000240: 123e 3cbd c0a5 b2bd 1b67 173d a69f b53c
00000250: f0b4 64bd ada7 9c3d deb2 ed3c 2d7d 303d
00000260: 6a63 7abd f890 4abd 4603 993d 3f88 003d
00000270: 97ea a93d e72c 7abe c3f7 1abc d055 1abd
00000280: e339 88bc 32b4 593d 92e8 3d3c 30f9 2b3d
00000290: f204 23bd 92af c73b f860 6abd 7b4f 863d
000002a0: 5667 8c3d d929 03bb e9df d7bc a33b 54be
000002b0: 3dee 78be 0841 b6bd e420 39bd aaa2 633d
000002c0: 75e9 283d 643d dcbd 84ba 3abd 22ae 97bd
000002d0: 4543 e93d 7575 15bc 0b4e 60bc 8043 99bc
000002e0: dc72 053d 415a 2e3c d402 893d 4d01 c6ba
000002f0: 54f0 18bd 6c50 6fbe 5578 953c a835 88bd
00000300: 0d6e bb3c 6de6 a2bc 0ae5 01be ca28 b73c
00000310: cfcb 3ebe 5eb3 27bc 2b58 76be ef24 7bbd
00000320: 3c38 9b3c 13e8 48be 3b4a ec3b 94d6 033a
00000330: 34fa a93b 3c2c c7bd 877f 07bd 0c2d 34be
00000340: 0316 583b d13a 47bc 2130 c5bd 0a46 263d
00000350: 9546 b7bc cf64 86bb 7bbc fabc af52 7dbd
00000360: 6953 d8bd efe1 30bd 79d6 f03c 5a9c d33d
00000370: ef0d 3bbd 8cb4 50be b6cd 3fbd 039b 8ebd
00000380: adad 213d 858b 1b3d f4f4 333d a347 9d3d
00000390: 3fad 64bd 1108 34bc c8e7 9c3d a433 89bd
000003a0: 317b a93d c4a6 99bd 8819 543d 90c0 58be
000003b0: 8758 26be 511a f7bb f006 183d 10e2 b93c
000003c0: 93bc 07bd 3464 8abd d43d 803d c9be a6bd
000003d0: 1919 913e 2fbb 9c3c bdcf d6bd 4451 47bd
000003e0: b244 8cbd 1c8f 47bd a6d4 07bd effe 073c
000003f0: f3a8 a9bc 8d95 3fbe d0b2 efbc a9cb 343d
-0.08197447 0.0463048 -0.05278953 -0.032708462 -0.09968554 -0.037673935 0.06683045 0.042762943
-0.08930039 -0.044671062 -0.04844165 0.043209903 -0.05396083 -0.08563885 0.029225323 -0.049101513
-0.00793007 0.015830608 -0.035391044 0.07221392 0.06428667 0.027622033 -0.037707098 -0.06928915
0.03319782 0.08338837 0.045537792 0.01311158 -0.06277687 -0.065492995 -0.08833633 0.07192588
0.07836592 0.024805626 0.018360913 0.028380444 -0.015740361 -0.0705047 -0.040164735 0.07373979
0.02210546 0.08070656 0.022771003 -0.046512317 0.010002959 -0.068497375 -0.04812663 -0.07201454
-0.052266475 -0.029007463 0.04842834 -0.01914459 0.06430552 -0.058370277 0.041399587 0.050565206
0.024246408 0.013215148 0.0073644556 0.055278953 0.06568335 -0.010418383 -0.059939317 0.04877538
0.06719071 -0.099384144 0.040094826 0.00056061265 -0.053406447 -0.07727576 0.0431213 0.08009389
-0.040037498 0.0060762735 -0.019162212 -0.07466335 0.05010134 -0.09191568 -0.11153355 -0.07458679
0.032711424 -0.06494231 -0.05246617 -0.037666205 -0.009170715 -0.023570213 0.052699544 0.070039585
-0.056146294 -0.027030744 0.055850506 0.028479839 0.08645792 -0.041884 -0.06533702 0.009477299
-0.009822207 0.028740712 0.0035509933 -0.04998166 0.0045753457 0.04584813 0.09061807 0.07532849
0.045427907 -0.030131783 0.021324353 -0.08253582 0.018651893 0.00519286 0.0880473 -0.017012544
-0.030719468 -0.061155133 -0.007302521 -0.02628662 0.014722282 -0.006824112 0.013763391 0.027753394
-0.07282754 -0.066681355 0.015633225 0.030660104 0.007562669 0.030646684 0.03867083 -0.034224283
0.019886255 -0.12087853 -0.018054137 -0.0479265 -0.31202093 -0.060819346 -0.27454382 0.06767909
-0.0063644415 -0.26542014 0.031210197 0.0029829184 -0.025069525 -0.011441899 0.016036399 -0.19193411
-0.045957632 -0.087230206 0.036963563 0.022170853 -0.055836618 0.07649169 0.029015955 0.043088127
-0.061129965 -0.04945466 0.074713275 0.031379934 0.082966976 -0.24431191 -0.009458485 -0.037679493
-0.016629165 0.053150363 0.011591094 0.04198569 -0.039799638 0.0060939277 -0.057221383 0.065581284
0.06855647 -0.0020013957 -0.026351886 -0.20725875 -0.2430963 -0.088991225 -0.045197383 0.05557505
0.041238267 -0.10753897 -0.04558803 -0.0740626 0.11389784 -0.009122242 -0.013690482 -0.018708944
0.03258024 0.010641635 0.066899925 -0.0015106589 -0.03733857 -0.23370522 0.018245855 -0.06650859
0.022879625 -0.019885266 -0.12685028 0.022358317 -0.18632434 -0.010235636 -0.24057071 -0.06131452
0.018947713 -0.1961978 0.0072109974 0.0005029228 0.0051872972 -0.09725234 -0.033080604 -0.17595309
0.0032972104 -0.012160019 -0.096283205 0.04059414 -0.022372523 -0.004101373 -0.030607453 -0.06184643
-0.10562784 -0.043184217 0.029399144 0.10332556 -0.045667585 -0.20381373 -0.04682704 -0.0696316
0.03947227 0.037974853 0.043934777 0.07679679 -0.055829283 -0.010988251 0.07661396 -0.06699303
0.0827545 -0.07502511 0.05178216 -0.21167207 -0.16244708 -0.007540979 0.03711599 0.022690803
-0.033138823 -0.067573935 0.06261793 -0.08141858 0.2833946 0.019132225 -0.10488842 -0.048661485
-0.0684904 -0.048720464 -0.03316178 0.008300527 -0.020710444 -0.18709393 -0.02926007 0.044139538

msg1.0.bias f4 [64]
00000000: 66eb e93b cf25 d63c 9159 963d 6aec c73d
00000010: 0238 a63c 3c7e 14bd 70e0 3d3d 4473 58bd
00000020: 1118 a5bb 1a1a 26bc 9ddb 6a3d c8f7 d439
00000030: eb6f 34ba 06da 54bd 79f1 69bc c743 96bd
00000040: b21f ee3c c2a7 bdbd 0ae4 a23d 8c6c a3bd
00000050: fdba dfbc 7a59 5f3d a1f3 bc3d 215a dfbc
00000060: f120 07be 2095 5f3b d100 5d3d 1e7a 32bd
00000070: c314 9cbd 54b4 e33b f9c2 a9bd 86b9 24bd
00000080: 8892 65bc dc09 61bd 90da 1b3c cf7e c6bd
00000090: 03d8 133d a8aa 133a 6ca2 b73c 396b ccbc
000000a0: fccc 0d3d 1be0 193c 3325 02bd b6c7 8fbd
000000b0: 71f5 e1bd 2a20 6fbd 67ad 5b3c 5ff1 77bd
000000c0: 4f06 cebd 94b0 953d 238d afbd 8a47 3ebc
000000d0: bb88 bdbb 2887 bbbd 26c9 ccbd 0ecf 823c
000000e0: 0b60 623c 4945 04bd 44d0 d8bd a284 1d3d
000000f0: 50b9 a0bd 1ce7 0ebe 4bd4 f83c 3240 b13c
0.0071386574 0.026141075 0.07341302 0.09761889 0.020290378 -0.0362532 0.04635662 -0.0528443
-0.0050382693 -0.010138059 0.057338346 0.00040620402 -0.0006883132 -0.051965736 -0.014278763 -0.07337146
0.029067848 -0.09260513 0.07953651 -0.07979688 -0.027310843 0.05452869 0.09226156 -0.027264656
-0.1319616 0.0034115985 0.053955857 -0.04357349 -0.076211475 0.006948987 -0.08289141 -0.04021599
-0.014011987 -0.054941043 0.009512559 -0.096921556 0.036094677 0.0005633035 0.022416316 -0.024953471
0.034619316 0.00939181 -0.031773757 -0.07020514 -0.11033142 -0.058380283 0.013408042 -0.060532924
-0.10059797 0.0730907 -0.085718416 -0.011613736 -0.005784122 -0.091566384 -0.099993035 0.015967872
0.013816844 -0.032292638 -0.105865985 0.038456567 -0.078478456 -0.13955349 0.030374667 0.021637056

msg1.2.weight f4 [64, 64]
00000000: 7db6 5cbc 17c7 b23d 7854 2c3d 5608 1cbe
00000010: 220b a83d ffbf 433d bfa2 9cbd 1478 c4bd
00000020: 7a78 1b3e e30d d0bd efa1 ba3d 6acd 4dbd
00000030: 114d 39bb a791 273c 13c9 b83d 3ab3 c83d
00000040: ad16 0fbe 2b66 2cbd 3a4c 19be 44da 0a3e
00000050: bed8 823d 6a0e 3b3d d16f 683e c4cd 21bd
00000060: 4df5 55bd fa35 e5bd 8a58 c63d 5980 cb3d
00000070: 3a8a 963b e8d0 59be 7a5d 80bb 5f91 04bd
00000080: 6f68 a3bd 9318 703d 5379 acbd 085f aa3c
00000090: 29f8 6d3d 1474 e03d 5bea 18be 45cf c6bd
000000a0: 870e 07be 7499 57bd 03cc 91bd 6105 8f3c
000000b0: b4ed 543d b59d babd abbd a53d 90e9 ebbc
000000c0: b6f2 bb3c 9098 1b3e f03d 843d a677 81bd
000000d0: 4ce8 1a3d a2b7 c83c e5ab b8bd 80eb f03d
000000e0: ef75 99be 9bc2 39be f209 da3d 75e2 64bd
000000f0: 00f8 a1bd 46e7 5cbc c93a 33bb 5fac a1bd
00000100: 7bd7 9dbc b4f0 2839 c8d7 033c 4329 e3bc
00000110: 4977 edbd fa1c 333d ebb0 b33d aba5 7c3d
00000120: e251 d53c 507b 07be dc0b 1fbd 58d5 a33d
00000130: 2247 983c 9acc fbbd bd5d 773c 922a 8e3d
00000140: 8580 913d 063b f8bd ac79 8bbd 7979 91bc
00000150: bda7 b4bd e3cf c4bd ea3f 243e df73 703d
00000160: 4261 a33d df63 cb3d b948 c03c 1ed1 b1bd
00000170: 09c6 b7bd d460 a73b 45b3 3ebe bbe1 513e
00000180: 1dfb e83d a6e1 a5bd d05c ddbd 7a8a df3c
00000190: 830e 5a3d 06ab 21bd 731b f0bd edaf 60bd
000001a0: 8e27 0abe d018 793c e83f b5bd a57b 05bd
000001b0: 17fa 053e ca1f d9bd 12d5 8a3d 7908 003e
000001c0: 7cd7 27bd 4ebd 3e3d d0c5 5d3d 3921 98bd
000001d0: 2c4b b33d 3204 91bd ca89 a8bb fbd3 fbbd
000001e0: 39ce 35bf 5d32 43be fb4d 343d 95e1 813c
000001f0: 7503 6c3d 00c7 f03d 5a55 aebc de26 b9bc
00000200: fc0a 963d 1f12 8f3d cc0e 84bd ce1d 8bbd
00000210: 44e9 ba3d 919d 4abe 407f e2bd 24e0 333c
00000220: 9ab5 95bd 108c 10be 0e20 65bd 8807 413d
00000230: 858c b5bd e8e8 41bd 1f40 74bd 2f58 12bd
00000240: 8663 8bbe d730 793d 0336 9cbd 1f82 7cbc
00000250: 38d9 b33d 601a a73c f630 c7bd 7377 a7bd
00000260: 2163 79ba 95d9 40be 26d4 c8bd 37f4 123d
00000270: 2f67 45bd 3f6b a73c 3880 6dbd 19b1 953d
00000280: fc7a 90bb aef5 523d e00b 173c b744 29bc
00000290: 9efc e63c ea38 dcbc 2fff 553e f746 243d
000002a0: 1088 30bc 0a0c fcbd c5ca 1cbd 5aaf e73a
000002b0: 8e41 bb39 9362 883d e750 fdbd 8e05 d33d
000002c0: d03b e4bc 022b 1bba b604 74bc 231c 54bd
000002d0: 3a93 2abd 20b5 0abe 3789 0cbd d9f8 bc3c
000002e0: cf10 523f f2c4 46be a48f 1dbd ed3d b4bd
000002f0: cf75 5bbc 2df1 c0bc f4c2 c3bd 1253 c03d
00000300: 720b e03d b9ab 543e 235a 9439 af02 d53d
00000310: d1a6 8e3d 2bed 8dbd b03e 183d 4925 243d
00000320: eee6 22bd af04 28be f07f fcbc 9d2f 89bd
00000330: 5e00 783d a4fa 993d 0c9c 463c f098 d13d
00000340: d41f 1cbe b566 8b3d 793c 313b 1b1b ef3d
00000350: c215 b43d 8a1d 013d 2095 d43d 1dae 5bbd
00000360: 7232 063e 67eb 3cbd 14f1 7a3d 34af 8c3d
00000370: 992e 40bd 49b8 9c3c 607d 8ebd 4539 02be
00000380: 9e6d acbd cd03 85bc 06ec 593d c55a f53d
00000390: e76b 543d e941 673d 02b6 e4bd e695 073e
000003a0: 612b 493d 3f13 99bd 7e0d c83d 2431 85bd
000003b0: 8d83 4b3d d4f7 3bbd 04ba debc aa74 a6bd
000003c0: b044 043d 2cc7 673d 8f20 b3bd 182d 693c
000003d0: 07a9 7bbd 1d6a 95bc bd82 9ebd c107 113e
000003e0: c6ec 8d3f e436 e7bd 46e7 55bd 9949 ecba
000003f0: f98d 013e 6a89 8c3d 4002 36bc 1619 d13d
-0.013471243 0.087293796 0.042072743 -0.15237555 0.082052484 0.047790524 -0.07648229 -0.095932156
0.15182677 -0.10158899 0.09112918 -0.050244726 -0.0028274695 0.010227597 0.09022727 0.0979981
-0.13973494 -0.042089622 -0.14970484 0.13559824 0.063889965 0.045668043 0.22698905 -0.039502874
-0.05223589 -0.11191936 0.09684856 0.0993659 0.0045941146 -0.21271098 -0.0039173933 -0.0323652
-0.079789035 0.058617186 -0.08421578 0.020797268 0.058097992 0.1095964 -0.1493315 -0.09707502
-0.13189135 -0.05263658 -0.0711899 0.01745862 0.051984504 -0.091121115 0.08092817 -0.028797895
0.022942882 0.15194917 0.06457126 -0.06321649 0.03781919 0.024501625 -0.09017161 0.11763668
-0.2997279 -0.18140642 0.10646428 -0.05588003 -0.0790863 -0.013482874 -0.002734827 -0.07894205
-0.019267788 0.00016111397 0.008047052 -0.027729636 -0.115950175 0.043728806 0.08773979 0.06168143
0.026040021 -0.13230634 -0.03882967 0.079996765 0.018588606 -0.12294884 0.015098033 0.069417134
0.07104591 -0.12120633 -0.068103164 -0.017758118 -0.08821056 -0.09609964 0.16040006 0.058704253
0.07977535 0.09931158 0.023472177 -0.08682464 -0.08973319 0.0051079784 -0.18623073 0.20496266
0.11376021 -0.0809968 -0.10808718 0.02728771 0.053236496 -0.03946974 -0.117239855 -0.054855276
-0.13491651 0.01520367 -0.0885008 -0.03258862 0.13083683 -0.106017664 0.06778921 0.12503232
-0.040976986 0.046567254 0.054143727 -0.07428212 0.08754572 -0.07080878 -0.005143379 -0.122962914
-0.71017796 -0.19062181 0.04401968 0.015854636 0.057620484 0.11756706 -0.021280933 -0.022601541
0.07326314 0.06985878 -0.06448135 -0.06792794 0.09126523 -0.1978667 -0.11059427 0.010978732
-0.073100284 -0.1411593 -0.055938773 0.047126323 -0.088646926 -0.047341257 -0.059631463 -0.03572863
-0.27224368 0.060837593 -0.076274894 -0.015411883 0.087816656 0.020398319 -0.097261354 -0.0817708
-0.00095133675 -0.18833001 -0.09806089 0.035877433 -0.048194107 0.020436881 -0.057983607 0.07309169
-0.004409192 0.05150383 0.00921914 -0.010331324 0.02819663 -0.026882607 0.20898126 0.04010674
-0.010774627 -0.12306984 -0.038279314 0.001767616 0.00035716261 0.066594265 -0.123689465 0.10303794
-0.027860552 -0.00059191894 -0.014893701 -0.051784646 -0.041644312 -0.13545656 -0.034310546 0.023067879
0.820569 -0.19411066 -0.038467064 -0.08800874 -0.013394787 -0.023552502 -0.09558669 0.093908444
0.10939683 0.20768632 0.00028295917 0.104009025 0.069654115 -0.06930002 0.03716916 0.04007462
-0.039771013 -0.16408037 -0.030822724 -0.06698535 0.060547225 0.07518509 0.012122165 0.10234249
-0.15246516 0.06806699 0.00270441 0.11675092 0.087932125 0.03152231 0.10380006 -0.053632844
0.13105181 -0.046122935 0.061265066 0.06869355 -0.04691944 0.019130843 -0.06957507 -0.12717159
-0.08419345 -0.016237164 0.053203605 0.119802035 0.051860716 0.05645934 -0.11167528 0.13240775
0.049113635 -0.07474374 0.097681984 -0.065035135 0.049686003 -0.045890644 -0.027188309 -0.08127721
0.032292068 0.05658643 -0.087464444 0.014231943 -0.061440494 -0.018239075 -0.0773978 0.14163114
1.1087883 -0.112897664 -0.052222513 -0.0018027305 0.12651815 0.06862147 -0.011108935 0.10209863

msg1.2.bias f4 [64]
00000000: 9efc 0e3e a0ba 4cbc af02 30bd 5289 353d
00000010: 310e 0f3e 3b50 6ebd 4cf2 8cbd 2cc1 d3bd
00000020: 8819 8f3d 1a39 5bbc 636e a8bd 8ed3 073e
00000030: c4b0 6d3d 39e9 60bd 746e 9bbc 8665 93bc
00000040: e67f 60bc ca64 493d 2bb3 273d 6068 0cbe
00000050: a05c 26bd 9568 bf3d c138 aabd 53ab 05bc
00000060: 3030 07be 92f6 5c3c 3805 173d 146a 503d
00000070: e1ba b43d ddfc f7bd 0a43 803d bf77 633d
00000080: dd63 b9bd 6890 c1bd 305a 58bd b54b 06be
00000090: c694 ae3c eac5 09bd c087 ac3c aa22 20bd
000000a0: e383 41bd bc13 e2bd c289 a8bd b673 5f3d
000000b0: 7f05 733d 3b06 013e 8de2 92bd 5ba4 76bd
000000c0: 1277 f5bc 6c22 dfbd 7e4b b0bd 5a52 6d3d
000000d0: 2b6d 183e b6ee 68ba b862 983d af84 813d
000000e0: 56db 8bbd 7ec5 b33d 92d9 9d3d 0a10 c3bd
000000f0: ff93 7a3d a371 97bd 9cee 5cbd 8eee 8d3d
0.13963553 -0.012495667 -0.04297131 0.044320412 0.13970257 -0.058181982 -0.06882152 -0.10339579
0.069872916 -0.013380313 -0.082241796 0.13264295 0.058029905 -0.05490992 -0.018973567 -0.017992746
-0.013702368 0.049168386 0.040942352 -0.13711691 -0.040615678 0.09346119 -0.08311606 -0.008158523
-0.13201976 0.013486521 0.03687021 0.050882414 0.08824707 -0.12108777 0.06262787 0.05553412
-0.090522505 -0.094513714 -0.052820385 -0.13114817 0.021311175 -0.03363601 0.021060824 -0.03909556
-0.047244918 -0.1103892 -0.082294 0.05455371 0.059331413 0.12600033 -0.071721174 -0.060215335
-0.029964004 -0.10895237 -0.08608149 0.057939865 0.14885394 -0.00088856684 0.07440704 0.063241355
-0.068289444 0.08777903 0.07707514 -0.095245436 0.061176296 -0.07394721 -0.053938493 0.06930266

upd1.0.weight f4 [64, 192]
00000000: ccdb 773e 3a58 c43d 6acc 0e3e 0da4 08be
00000010: 8590 aabd e28c 823d 9f1d 39bd 5426 853b
00000020: db31 bc3e a4fb b3bd 2acf 81bd 2d93 9cbd
00000030: f706 02bd 6296 9b3e db01 ccbd 0738 4ebd
00000040: b099 0abe f9a5 8cbd ea24 b33d 8fa5 f3bc
00000050: 2b1e 17be 7a84 3f3c f029 8a3d 1cca 263b
00000060: d546 3bbe c13a 303d afe0 88bd 7dc2 1c3d
00000070: e309 d3bd 6f66 c0bd ef38 e5bd d094 8ebd
00000080: ddc2 3ebd f89b 3b3e f1f6 a63e fa7a 3ebd
00000090: 66fa 8abd 8d7e 123e d940 9dbd eb3d ce3b
000000a0: 79c7 b33d 0c6d 983c 8ef1 7c3e bd54 48be
000000b0: e8b4 c4bd 633b 1e3d 497d 013d 4c86 5b3e
000000c0: 50fa 28ba 8c26 4dbe 3a72 743d 23d2 3abe
000000d0: 9070 2f3d 15d2 0a3d e235 853e 9d3e 22bd
000000e0: e8c4 2a3d b980 463e 5ed6 6cbc f831 4bbd
000000f0: 387e 033d 5424 eabd 0392 ebbc fd14 e5bc
00000100: 56da b5bb 7ddf 8cbc 3618 ab3d 3da3 afbd
00000110: dc39 ddbd b084 9cbd 2198 2a3c 2c7f a43d
00000120: 4ca9 fbbd b1ae 5b3d 799d 57bd 0954 2fbd
00000130: 7bd8 1d3d 8d7d 5abd 30a0 a6bd a951 e1bd
00000140: edc1 f0bc b35f 29be 2507 a63c 0ed6 10be
00000150: fdc0 b43d 907e 0cbd ad14 953d 37af 87bd
00000160: 4321 eebd 11c6 07bd 8f8b de3b 28f0 1abd
00000170: 9ce1 d1bd 0880 46bd 4532 d5bd 1b2d a83d
00000180: ab81 96bc e29e 7f3c 0ace aabd 7dc2 ffbc
00000190: 158f 7dbc 7052 aabc 2451 c1bd 6417 24bd
000001a0: 4590 57bd 91fb 033e 50f5 d03c 904f adbc
000001b0: 2b5b 3ebd b8e4 233d 7ecc c0b8 d791 c63d
000001c0: 6d8e 683d ac38 273d d6df 063e e731 3dbe
000001d0: 85ed a93d edf6 ce3d fbe6 8f3d a7b5 983d
000001e0: ff9d 07be 227a 663d 3216 ffbc d8c6 07bd
000001f0: af10 883d 1b6a b7bd 1f2e ef3c a098 8b3d
00000200: 1b5d 07be 698c d4ba ba0e d13c 4241 bdbd
00000210: 4a4c 8cbd a9b2 66bd f59b 1d3d a75c 30bd
00000220: 3060 afbc 2f54 a3bd ab00 54bd b2bf 7abc
00000230: 89d9 01be 5875 37bd 8417 813c f272 853d
00000240: ab5d 7c3c 48a3 173e 4e48 cf3d 3540 2e3e
00000250: 0a72 56bd d3d4 14bc 7a30 343e 7f60 10bd
00000260: 6b2d df3d 11c6 b4bc 0fda 413d 089d 44be
00000270: 95ba 11bc 535f f13d 821f bd3d 4ce3 cd3d
00000280: 6163 1d3d 3ace 4abe 9ae6 573d 4e95 0e3e
00000290: 6865 f13d bc4e 0bbe e7cd 6f3d cc01 71b9
000002a0: f496 05bc 54fb 99bd ca63 cd3c aab3 033e
000002b0: f781 0e3e a070 a6bd e7f5 a0bd 2e44 05bc
000002c0: 9a3e b4bd 9e4a b2bd 9c20 ce3c b467 0f3d
000002d0: 6a56 13be a8ea af3b 1864 2dbd 298e 17bd
000002e0: b0c1 1b3e 0075 c23d 5373 343d c9d9 6f3d
000002f0: e817 19bc a838 af3d 3667 9d3d 3025 9c3c
00000300: b315 a9bc 64f0 ac3c de9c 2bbd 72f4 98be
00000310: d02a bcbd 334a 7dbd 7b87 70bd fe13 fd3c
00000320: 8f78 3a3e 9c2e 0f3d 7374 0ebd 6c16 59bd
00000330: a888 603a b828 2b3f c50b dbbc 4a83 03bd
00000340: 4d88 debc 8064 76bd e942 49bd 88b7 b1bd
00000350: 07ac 22bd 5fb7 a33c 8ce6 9bbd 82f4 80bd
00000360: c572 0ebd aaed 373d 446b 90bc 8e52 873d
00000370: 821b e0bd 1812 b13c 5960 c43d bceb c03c
00000380: 7380 8d3d 7cb8 08bd 32fe 013e d7a2 80bd
00000390: e8c7 163a e8e1 3cbf ba3a 923d 5684 1e3d
000003a0: 324a 02be a43a 69bc d3f3 323d 26a5 eb3c
000003b0: 460b 453d f352 4b3a eb07 28bc 0246 dd3d
000003c0: 15fc 753c 1876 1ebe f5e4 98bb 0422 893d
000003d0: 0142 403d 3953 f5bb b8f0 593d c426 bf3a
000003e0: bc62 edba e620 b53c d6d8 76bd 0ccc d33b
000003f0: f0d4 e7bb e341 a6bd 666d 09bd 4a0a 893d
0.2420494 0.095871404 0.13945165 -0.1334383 -0.08328346 0.063745275 -0.045194265 0.004063407
0.36756787 -0.08788231 -0.063383415 -0.07645259 -0.031744923 0.3038817 -0.099612914 -0.0503464
-0.1353519 -0.06867594 0.08747275 -0.02974203 -0.14757602 0.0116893 0.0674628 0.0025450056
-0.18288739 0.043024782 -0.0668348 0.038271416 -0.1030462 -0.09394538 -0.111925 -0.069619775
-0.046572555 0.18321216 0.32610276 -0.046504 -0.06786041 0.14306088 -0.07678384 0.0062940023
0.08778281 0.018606685 0.24701521 -0.19563575 -0.09604818 0.038630854 0.03161362 0.21437949
-0.0006445991 -0.20034236 0.059679247 -0.18244223 0.042831957 0.033891756 0.26017672 -0.039610494
0.04169169 0.19385041 -0.014455406 -0.0496082 0.032102793 -0.1143271 -0.028756147 -0.02796411
-0.0055497093 -0.017196411 0.08354227 -0.08576057 -0.108020514 -0.07642496 0.010412247 0.080320686
-0.1228815 0.053633396 -0.052640412 -0.04280475 0.03853653 -0.05334239 -0.08136022 -0.110019036
-0.029389346 -0.16540413 0.020267079 -0.14144155 0.08825872 -0.034300387 0.07279334 -0.066252165
-0.11627438 -0.033147875 0.006791539 -0.037826687 -0.1024811 -0.048461944 -0.10409979 0.08211728
-0.018372377 0.015601845 -0.0834008 -0.031220669 -0.015476008 -0.020791262 -0.094393045 -0.04006137
-0.05262782 0.12888934 0.0255076 -0.021156102 -0.046473663 0.040013045 -9.193363e-05 0.096957855
0.056776453 0.04082553 0.13171324 -0.18476067 0.082972564 0.10105691 0.07026478 0.074565224
-0.13243864 0.05626882 -0.031138513 -0.033148617 0.06643807 -0.08955785 0.029196797 0.0681622
-0.1321911 -0.0016216162 0.025519717 -0.092409626 -0.068504885 -0.056322727 0.03847881 -0.04305711
-0.02140817 -0.07975041 -0.05175845 -0.015304493 -0.1268064 -0.044789642 0.015758283 0.06516065
0.015403192 0.1480838 0.10121213 0.1701668 -0.05235485 -0.009083944 0.17596617 -0.035248276
0.10897335 -0.022067102 0.047327098 -0.19200528 -0.008894582 0.1178576 0.09234525 0.10053119
0.038424853 -0.19805232 0.052710153 0.13924143 0.1178692 -0.13604254 0.058545973 -0.0002298422
-0.008153666 -0.0751864 0.025071997 0.12861505 0.13916765 -0.0812695 -0.07859402 -0.008133931
-0.08801003 -0.08705638 0.025162034 0.03501101 -0.14388433 0.0053685494 -0.042331785 -0.03700081
0.15210605 0.09494972 0.044055294 0.058557305 -0.009344079 0.08555728 0.076857015 0.019060701
-0.02064023 0.021110721 -0.041897647 -0.29873997 -0.09187853 -0.06183834 -0.058722954 0.030893322
0.18210052 0.03495656 -0.034779023 -0.0529999 0.0008565285 0.66859007 -0.02673901 -0.03210763
-0.027164603 -0.060154438 -0.049136076 -0.08677584 -0.03971484 0.0199849 -0.07612333 -0.06296636
-0.03477742 0.04490439 -0.017629273 0.06607543 -0.10942747 0.021615073 0.09588689 0.023549907
0.06909265 -0.033379063 0.12694624 -0.06281059 0.0005751834 -0.73782206 0.071401075 0.038700424
-0.12723616 -0.014235172 0.04368956 0.028765272 0.048106454 0.0007756196 -0.010255794 0.108043686
0.015013714 -0.15474737 -0.0046659657 0.06695941 0.046937946 -0.0074867276 0.053208083 0.0014583697
-0.001811109 0.022110414 -0.060265385 0.0064635333 -0.0070749447 -0.08118036 -0.033551596 0.066914156

upd1.0.bias f4 [64]
00000000: 3c84 29bd bd18 973d 5b3f c6bc 75c1 88bc
00000010: d955 0a3d 6c6b 33bd 4889 88bc 93d2 2bbe
00000020: 4eed 203d c907 44bd 14b9 73bd 7817 63bd
00000030: 1d42 8ebc bafa 253c a037 9b3b 6f63 6cbc
00000040: ea49 21bd 722a 153c f1da f3bc ff4d 6c3c
00000050: 3541 4bbd fc36 863b c0c7 52bd b9ba 15bd
00000060: cb46 1c3d 1c13 863c 6f4e 70bd 1166 8b3d
00000070: f50a 96bc db2a 58bc b8af 6ebd 79eb 98bc
00000080: a594 713d 966e 8dbd 236f 393d aa91 eabc
00000090: 6702 97bd 6a34 613d 77b8 98bd ba83 d43c
000000a0: 0060 8c3c 966b 00bd 77d7 1e39 c7b7 c3bd
000000b0: 2512 94bc 22fe 70bd 1a3b c23c 4475 dd3c
000000c0: 9433 133c 29c4 c0bd d9cb 84bd 0119 8cbd
000000d0: 03cf aabc 5c5d dbbc 1f9f 363d 42f1 cfbb
000000e0: 9e97 083d b18f d6bc f28c b1bd b61e 2d3d
000000f0: 5d61 273d 3f90 18bc 8e39 c3bb cff1 1a3c
-0.041385874 0.07377765 -0.024200132 -0.01669381 0.033773277 -0.043803617 -0.016667023 -0.16779546
0.03928881 -0.047858987 -0.059502676 -0.055442303 -0.01736551 0.010130579 0.0047368556 -0.014428004
-0.03937713 0.009104358 -0.029767485 0.014422893 -0.049622733 0.00409591 -0.051460028 -0.036555026
0.03815345 0.016366534 -0.05866855 0.06806577 -0.018315772 -0.013193811 -0.058273047 -0.01866697
0.05897965 -0.06905858 0.045272004 -0.028633911 -0.07373505 0.054981627 -0.07457059 0.025941718
0.01713562 -0.031352602 0.00015148321 -0.09556537 -0.018075058 -0.05883611 0.023709822 0.027033456
0.008984465 -0.094124146 -0.06484193 -0.068407066 -0.020850664 -0.026777916 0.044585343 -0.006345899
0.03334772 -0.026191564 -0.08669461 0.042265616 0.040864337 -0.009311735 -0.005957789 0.009457066

upd1.2.weight f4 [64, 64]
00000000: 210d bb3e 669b 043d ed48 1dbe a54d 98bd
00000010: 47b5 6a3e ec15 fabd 1590 a6bd 9987 8ebd
00000020: f062 953b 2569 a9bb 820e 2f3e 0867 843e
00000030: 3780 d23c 28a0 fdbc d545 76bd 5045 30bd
00000040: c8ca 09be 336f 833d d46d 60bd d2b6 773d
00000050: 2348 703d 7508 96bd 18d3 cfbd 036d 723d
00000060: 4704 8e3d 535c 503d 7afa c63c 28bf 183d
00000070: d293 b3bd c899 0fbe 04cc 21be bdb1 11bd
00000080: 85a3 433e f850 b53d fdaa d2bd 9be6 6c3d
00000090: dd03 103e a05e 8ebe 00bb 9f3e e025 f13c
000000a0: 5643 54be 7a18 79bd afed cc3c e19c 75be
000000b0: fca6 823d 76a3 9a3d fd2e 3a3d 4474 5ebd
000000c0: da42 50bc f1e0 223c 7b51 acbc db31 933d
000000d0: 357d 83bd b13b b33c 5c99 a23e e496 8abd
000000e0: 1159 54be 8678 68bb 7656 a8bd 2ba1 9b3d
000000f0: 0e51 813d 1d00 05be 8751 a03d ca76 94bd
00000100: fed9 6e3d 65e6 8abd 819d 0ebd 3f86 b73d
00000110: 4847 58bd 7ce1 cb3d 1afa af3d 0eb9 093d
00000120: 768c c4bc 1a0c 6a3b dc73 3d3e bdbb 623d
00000130: 182b a6bb d91b 00bc a535 2ebe c308 e0bd
00000140: 65ae c5bd 3680 35be eae1 493d 4450 7fbc
00000150: a73b 13be 532c 30bc 97bb 073c 6452 dfbd
00000160: bb46 81bd 5ab6 343d e37d 96bd 9326 02be
00000170: 47b9 d83c 0595 e33d 7585 9b3d 2e22 c93b
00000180: 30d4 88bd 3eed c9bd 60f9 b73d c7f3 bbbd
00000190: feaf cfbd 815a e13b e43b c93b eb12 b93d
000001a0: e686 8f3c 9591 aa3d 0a06 823c 1b0f b3bd
000001b0: d162 df3d 78ee f3bc b2ce 01be 4f76 ca3d
000001c0: 349d 7bbc f592 a23c 1775 603d 4bb9 a2bd
000001d0: b2a2 f23d c232 47bd 0503 393d 2dc1 b8bd
000001e0: b20e a63d 2b25 173d 5654 ae3d 0496 873d
000001f0: efc6 ad3d 7f08 b3bd 3046 02be b590 983d
00000200: ad78 1e3e 4358 313e 7890 5d3d 0571 1a3d
00000210: 3cbe 283e 24a8 813d d5bb 03bd 5ec8 8cbe
00000220: 998a aa3c 13cc d4bd f4a0 5fbd 9bde cbbb
00000230: 2090 dcbc e124 e9bd c49c b0bd e0fd cd3d
00000240: 9687 77bd 5163 9b3c c44c a4bd 2082 9f3d
00000250: 44da cfbd b079 b0bd 59b7 813d 35fc 15be
00000260: 765d a33d 4948 223d 4ae0 91be cd14 753c
00000270: 401b ecbc 2830 803c 2a20 edbd 4182 133d
00000280: fe0c 533d f4bb b13d c36c a6bd 88af 6abe
00000290: 9d65 8abd 7ba1 0dbe 7d4b 503e e04e 713c
000002a0: 4a34 b23d d8c7 c8bd ec8d 1d3d bd18 39be
000002b0: ea7f e23d a8ee afbc 2845 283d 70e3 10bd
000002c0: ff3c 1b3e da6f e1bd e0a2 edbd 81ac 3fbe
000002d0: 0c63 73bd 168f 803d d3b0 3bbd ce41 8dbe
000002e0: 1474 44be e99e 1fbe 3c80 e53d 79dd 493e
000002f0: 3042 343c d0a0 8d3c d835 d2bc c0fe ecbd
00000300: 20ee fabc d9ab b1bd 2eda a4bd f381 a7bd
00000310: 794d d6bd e7a1 92bc b8a3 68bc 24d3 5abd
00000320: 2184 76bc eb56 b73c fda1 d4bc 7762 5eba
00000330: 5159 4abd 4207 1d3d b3ee 2f3c b6e8 a33c
00000340: 8321 cf3c 4f76 953c 85a7 a63d 0dd9 62be
00000350: b210 c03d a30e d2bd dbf7 ce3d fd84 abbb
00000360: 66a3 353d c930 d43d 5ffd fc3c deec 193c
00000370: 8eff a63d 2e0b ba3b 86a5 273c c9d2 adbc
00000380: 9a0e 85bc 0106 62bd f531 b63d 1f0a 2e3d
00000390: ae8d b03d c1be 013d e509 c83d e0d2 a13d
000003a0: 493a 9d3d 8d42 903d 9ab5 0cbe d5d6 c73d
000003b0: 6e34 e1bd 25dc e3bd cb77 77bd 0fa1 e2bd
000003c0: 6a4e 813d 1366 953d 3ce7 dbbd a2ac 98bd
000003d0: f35c 1a3d dc2c b03b bec0 f73c e7c5 39bd
000003e0: 7a3e 823c e865 4ebd 8b15 01be 1eed 5f3d
000003f0: f671 c3bd 28d9 7f3d b94f e1bd a713 8c3c
0.36533454 0.032374762 -0.1535985 -0.074366845 0.22920714 -0.122112125 -0.0813295 -0.06959457
0.0045589134 -0.005170005 0.17095378 0.25859857 0.025695903 -0.030960158 -0.06012519 -0.04303485
-0.13456261 0.06417694 -0.05479224 0.060477085 0.058662545 -0.07325832 -0.10147685 0.059185993
0.069344096 0.050869297 0.024289358 0.037291676 -0.08768429 -0.14023507 -0.15800482 -0.035569895
0.19105347 0.08853334 -0.1028652 0.05783711 0.14063974 -0.27806568 0.31197357 0.029437006
-0.20728812 -0.06081436 0.02501568 -0.23985626 0.06379506 0.07550709 0.045454968 -0.0543101
-0.012711251 0.0099413255 -0.021034947 0.071872436 -0.06420366 0.021879049 0.3175763 -0.06767061
-0.20737101 -0.0035472228 -0.08219616 0.075991 0.06314288 -0.12988324 0.0782805 -0.0724922
0.058313362 -0.067822255 -0.034818176 0.08961152 -0.052802354 0.09955117 0.08592625 0.033623748
-0.023992758 0.003571278 0.18501228 0.055354822 -0.005071055 -0.007819139 -0.17012651 -0.10939171
-0.09652404 -0.1772469 0.049287714 -0.015583102 -0.14378224 -0.010752755 0.008284471 -0.10904387
-0.06312319 0.044119217 -0.0734823 -0.12710027 0.026455535 0.111124076 0.07593814 0.0061381077
-0.066810966 -0.098597035 0.089831114 -0.09177356 -0.1014099 0.006877244 0.0061411727 0.090368114
0.01752038 0.08328549 0.01587202 -0.087431155 0.109075196 -0.029776797 -0.12676504 0.09885847
-0.015357304 0.019845465 0.054799166 -0.07945498 0.11847438 -0.04863239 0.045168895 -0.0902122
0.08108272 0.03690068 0.085121796 0.0662041 0.08485209 -0.08741855 -0.12722087 0.07449476
0.15475722 0.17318825 0.054092854 0.03770544 0.16478819 0.063308984 -0.032161552 -0.27496618
0.020818042 -0.103904866 -0.054596856 -0.006221605 -0.026924193 -0.11383987 -0.08623651 0.100581884
-0.06043204 0.018968256 -0.080224544 0.07788491 -0.10149053 -0.0861696 0.06333799 -0.1464699
0.07976811 0.039619718 -0.2849143 0.014958573 -0.028821588 0.015647963 -0.115784004 0.03601289
0.051526062 0.08678427 -0.081262134 -0.22918522 -0.067576624 -0.13831131 0.20341296 0.014728278
0.087013796 -0.09803742 0.038465425 -0.18075843 0.11059554 -0.021476105 0.041081578 -0.03537315
0.15159987 -0.11007662 -0.116033316 -0.18718149 -0.05942063 0.062772915 -0.04582293 -0.27589267
-0.19184905 -0.15587963 0.112060994 0.19713391 0.011002108 0.017288595 -0.02566044 -0.11572027
-0.030631125 -0.086753555 -0.08049427 -0.08179083 -0.104639955 -0.017899467 -0.01419919 -0.053424016
-0.01504615 0.022380313 -0.025956148 -0.00084833003 -0.049401585 0.038337 0.010738063 0.020008426
0.025284534 0.01824489 0.081374206 -0.22153111 0.093781844 -0.10256698 0.101058684 -0.0052343593
0.044345282 0.103608675 0.030882536 0.009394852 0.08154212 0.0056776023 0.010232335 -0.021218674
-0.016242314 -0.055181507 0.08896247 0.04249012 0.08620773 0.031676058 0.09767512 0.07901549
0.07677133 0.070439436 -0.1374115 0.09757773 -0.10996328 -0.111259736 -0.060416978 -0.11065876
0.063137844 0.0729486 -0.10737464 -0.07454802 0.0376863 0.0053764414 0.030243274 -0.04535475
0.015898932 -0.050390154 -0.12605874 0.054669492 -0.09543221 0.062462956 -0.11001534 0.017099215

upd1.2.bias f4 [64]
00000000: 909f 1f3e 805a e0bd 5231 5c3c 2829 8ebd
00000010: 29c4 32bb daad cb3d 6895 36be 8dfe 2cbe
00000020: f3a3 033d 225f 88bd 1d7d 8a3d 2eda e8bd
00000030: 1bce e4bd e7f2 e03a 3dee 833d 0859 8f3d
00000040: 6ab1 1f3c 3cd0 c43b d358 863c b051 083b
00000050: 3f3d 6e3d 5440 bf3c 3129 063d da5d c7bd
00000060: 3231 993d f1e7 863d ccee 58bc 3345 8e3c
00000070: b6e1 20bd cd9c b03c 5887 f7bd 00ad d2bd
00000080: 7b00 27bd 6c60 673d 43e3 01be d9e4 753d
00000090: cdb4 a1bd c975 a53c 1093 97bd cb86 d93c
000000a0: 1ca8 7abd 3eec c13d 9df4 9a3d 0774 7fbd
000000b0: a3e1 ff3c 063c 543d b7d4 883d 9890 c23d
000000c0: 66af 70bd 91e9 f43d c449 4cbd ad7d 133e
000000d0: 6bd0 ac3c 50db babd bce9 6dbd 4ae4 0ebd
000000e0: fd27 15be 6939 8639 45c6 483d 2b1d a93d
000000f0: e5e4 bbbd 24cc 4fbd c955 dc3d 261a 8fbd
0.15588212 -0.109547615 0.013439493 -0.06941444 -0.0027277565 0.09945269 -0.17830431 -0.16893978
0.032138776 -0.0665877 0.06762145 -0.113697395 -0.11172124 0.0017162234 0.06441925 0.06999403
0.009746889 0.006006269 0.016399777 0.0020800643 0.058163878 0.023346104 0.032754127 -0.09734698
0.074800864 0.06587208 -0.013240527 0.017366981 -0.039277755 0.021559143 -0.12086362 -0.102869034
-0.040771943 0.05648844 -0.1268435 0.0600327 -0.07895813 0.020197766 -0.07401097 0.026553532
-0.061195478 0.09468888 0.075661875 -0.06236651 0.031235522 0.051815055 0.06681197 0.09500235
-0.058761023 0.11958612 -0.049875036 0.1440341 0.021095475 -0.09123862 -0.058084235 -0.034885682
-0.14566036 0.00025601246 0.04901721 0.082575165 -0.091745175 -0.050731793 0.1075855 -0.06987409
