gnn_output/model_approach_b.pt (torch, 289815 bytes, 21 tensors)

feat_enc.0.weight f4 [64, 133]
000000 ab 6e cc bc 51 99 ba 3e c0 e5 1e 3e a5 e0 d2 bc
       -0.024955114 0.36445096 0.1551733 -0.025741884
000010 e6 be fb 3c 37 e0 90 bd e8 ad 73 bd 01 fc 08 be
       0.030730676 -0.070740156 -0.05949202 -0.13377382
000020 51 a8 9b bd 40 6e f6 bd 96 ac c7 3c 2b 8e 03 be
       -0.07600463 -0.12032747 0.024374288 -0.12847202
000030 b3 ca 89 bd a3 38 7f bd 23 b4 73 3c 72 dd b6 bc
       -0.06728115 -0.062309872 0.014874491 -0.02232239
000040 ed e2 4e bd b2 8c 6d bd 7a a1 43 3d 34 b4 8f 3d
       -0.050509382 -0.057995506 0.047761418 0.07016793
000050 5a f0 aa 3d bc 9d d3 bc 41 93 ac bd 6a 62 4c bc
       0.08346625 -0.02583205 -0.08426524 -0.012474636
000060 30 af ca 3c 75 46 a0 3d 83 97 62 bd 71 76 f2 3c
       0.024741739 0.078259386 -0.055320274 0.029597493
000070 91 4c 82 3d 05 8f cd 3c 7e e0 bd 3c 19 22 29 bc
       0.0636226 0.025092611 0.023178335 -0.010323071
000080 f7 0d 55 bd 3d 9a ce 3c 0e 65 a9 bd fa df 0b bd
       -0.05201527 0.02522003 -0.08271228 -0.034149148
000090 1d 9d 4e 3d 56 95 a0 3c ab c8 c3 3c 3e 8d 8d 3d
       0.050442804 0.019602459 0.023899397 0.069117054
0000a0 c4 9b 27 bd 5d b9 a3 bc c0 97 90 3d 23 34 8e bb
       -0.040920034 -0.019985849 0.07060194 -0.0043397113
0000b0 07 3a 2f 3d 91 b0 95 3d f4 ee 64 bd a0 07 93 bd
       0.04277995 0.07309068 -0.055891946 -0.07179189
0000c0 75 2a 6a bd ca 0c a3 3d 40 78 1e 3d a7 ca 29 3d
       -0.057169396 0.07961424 0.038688898 0.04145303
0000d0 37 fb a9 bd ac ed 8f bc 30 a7 30 bd eb e6 4f 3d
       -0.082998686 -0.017569385 -0.043128192 0.05075733
0000e0 62 ff 50 bd 2f 5d 0e 3d 18 11 17 3d 2a 93 98 bd
       -0.051024802 0.034756836 0.036881536 -0.07449944
0000f0 49 7f 3f 3d c4 e5 c8 bb 0c 1e 37 3b 00 65 0b bc
       0.046752248 -0.006130906 0.0027941493 -0.008507967
000100 01 53 83 bc 2a 28 25 3d 9e 10 12 3d 37 35 1d 3d
       -0.01603079 0.040321507 0.03566038 0.038380828
000110 7d 8e b8 3d e5 aa 74 3e 55 dd 57 3d 44 e4 e3 bd
       0.090115525 0.23893316 0.052701313 -0.111275226
000120 b2 e8 1b bd 88 bb dc bd 91 46 97 3b d8 ab 81 3c
       -0.038063712 -0.10777956 0.0046165665 0.015829012
000130 e8 e9 bd bd e8 86 c2 bd 6e 57 f4 bd aa 0a 06 be
       -0.0927313 -0.094983876 -0.119307384 -0.13090006
000140 32 85 cd bd c4 03 07 bc b8 b5 b5 bd 46 06 4e bd
       -0.100351706 -0.008240644 -0.08872551 -0.05029895
000150 de 59 93 bc ee f9 55 bd 34 dd dd bd 26 3c fa bc
       -0.017987188 -0.052240305 -0.10833207 -0.03054626
000160 9b f5 21 bc 8e 52 9f bd 2d 47 20 3c e1 20 82 bd
       -0.009885217 -0.07779418 0.009782595 -0.063539274
000170 c4 2f 68 3d 2c 10 c0 3b fd 85 20 bd 39 54 8e 3b
       0.056686178 0.005861303 -0.03919028 0.004343536
000180 e3 33 ea bc 3c 0f 9a bd 31 b0 08 bd 0e 83 db 3b
       -0.028589195 -0.07522437 -0.033371154 0.0066989725
000190 63 c9 37 bc ed 3d 25 3d e4 c4 9e bc 90 e6 19 3d
       -0.011217448 0.04034226 -0.019380994 0.037573397
0001a0 45 c2 42 3d b7 1b b0 3c c9 01 f6 3c f1 7e af bc
       0.04754855 0.02149759 0.030030148 -0.021422835
0001b0 ad cf 96 3d 30 c9 66 bc fb 3e 84 bd 91 69 35 bd
       0.0736383 -0.014086053 -0.06457325 -0.04429013
0001c0 c3 e4 06 3d 8b cd 05 bd 23 c9 97 3d 62 7d 90 bd
       0.032933008 -0.032666724 0.07411411 -0.07055165
0001d0 c2 c6 38 bd b7 fb 95 3d dc ee 78 bb 2c df a7 bd
       -0.045111425 0.073234014 -0.0037984168 -0.081968635
0001e0 a1 36 92 3d 73 3b 1d bd 3b 09 05 3d 71 1d 80 bd
       0.07139326 -0.038386773 0.032479506 -0.062556155
0001f0 24 5c 67 3d c7 6f af 3d 83 c0 47 bc db 98 e5 bc
       0.056484357 0.08566242 -0.012191894 -0.028026989
000200 09 1f 9d 3d a3 22 8e bd 70 20 9c 3c 87 11 4a 3b
       0.07671935 -0.069402 0.019058436 0.00308332
000210 54 76 77 be 10 47 0f 3d d7 28 21 be 37 cf 9b ba
       -0.24166232 0.03497988 -0.15738235 -0.0011887316
000220 66 c3 ac 3c 0e c4 7f bd 77 5c 89 3d 01 0c 5c bc
       0.021089267 -0.06244283 0.067070894 -0.013430596
000230 f0 42 a6 3d 87 5a 83 bd 49 21 83 bd 40 15 6f 3d
       0.08118236 -0.06413751 -0.06402833 0.058369875
000240 80 a2 11 bd a1 3a 9e 3c 2d 73 c9 bc 99 90 70 3c
       -0.035555363 0.019315066 -0.024591053 0.014682912
000250 7e 46 0b bd 66 20 df bb 68 e5 94 bb b9 45 d9 3b
       -0.034002773 -0.006809282 -0.004543949 0.006630626
000260 41 4d 85 bd d4 cc 05 3d 0b 50 09 3d 2c 36 80 bc
       -0.06508876 0.032666042 0.0335236 -0.015650831
000270 53 fb 5b 3b 79 35 9b 3c 3a 2b 3d bc 84 db 5f bd
       0.003356655 0.018946396 -0.011545951 -0.054652706
000280 ff 40 56 bc 28 d3 98 bd 77 87 a0 3a 22 8a 99 bd
       -0.01307702 -0.0746215 0.0012247403 -0.0749705
000290 04 41 93 bd 62 bd 28 3d f4 f0 a0 3d c3 8d 44 bd
       -0.07190135 0.041196235 0.07858458 -0.047986757
0002a0 82 a4 4c bd 60 5e 9f 3d 65 6c ff bc df b1 92 bd
       -0.049961574 0.077816725 -0.031179616 -0.071628325
0002b0 59 d7 3a bb 28 55 0c bd bb 98 94 bd 39 8e ef bc
       -0.0028509705 -0.0342609 -0.072556935 -0.029242622
0002c0 e7 4f 60 3d cc fe ae bd 4e 28 2f 3d af 5b 59 bd
       0.0547637 -0.085446924 0.042763047 -0.053065952
0002d0 a5 e9 b7 bc ef 9c 0c 3d 75 98 3d 3d db 5f 32 bd
       -0.022450278 0.03432935 0.046287972 -0.043548446
0002e0 82 1f 10 bd bd 31 f0 bc a3 21 38 bd 06 56 89 bd
       -0.0351863 -0.029320592 -0.044953953 -0.06705861
0002f0 44 cb 95 3c d6 23 91 3b 0c a3 5d 3d a3 6d 27 bd
       0.018285401 0.004429321 0.05411057 -0.040876042
000300 67 a8 40 bd 4d a1 0c 3d 0a 2b 8d 3c f9 03 7f 3d
       -0.0470356 0.034333516 0.017232437 0.062259648
000310 26 3c 86 bd 50 9e 90 3d 5a ea 15 bd 47 4c 63 3c
       -0.06554441 0.07061446 -0.03660045 0.013873166
000320 47 2d b7 bc 04 8c ce bd c6 e9 29 be e2 36 a1 bd
       -0.022360457 -0.100852996 -0.16593084 -0.07871796
000330 9d 1a a4 bc 13 5e 68 bd 91 9b b4 3c 7c 59 18 3d
       -0.020032221 -0.05673034 0.022046836 0.037194714
000340 c0 13 93 3d ec 22 56 3d 3d bc 11 3d 79 c7 55 bd
       0.071815014 0.052279398 0.03557991 -0.052192185
000350 55 83 3e bd c3 34 9a 3d b1 60 cc bc 8b 52 4c bd
       -0.046511967 0.07529595 -0.02494845 -0.049883407
000360 c4 d1 0a 3d 01 6f 52 bd d0 77 2a bd 04 0e b7 bb
       0.033891454 -0.051375393 -0.04161817 -0.0055863876
000370 61 c5 99 bd 65 a1 b0 bd 7f c2 b1 bd bb a9 94 bd
       -0.0750835 -0.086245336 -0.08679675 -0.07258936
000380 a0 1c 22 bc 0e 4d 6b bd 6e 1e 52 bc 2a 30 1a bd
       -0.00989452 -0.057446532 -0.012824638 -0.03764359
000390 fb 9b b6 bd ab 89 06 bd a7 22 a7 3c 12 cf 38 3d
       -0.0891647 -0.032846134 0.020402266 0.045119353
0003a0 c6 9c fd 3b 77 c1 a1 3c c8 28 e5 3c a1 c7 ae 3d
       0.007739636 0.019745572 0.027973548 0.0853417
0003b0 c4 40 15 bd 75 eb 1e 3d 0a 4f ae bb 97 60 af bc
       -0.03643872 0.038798768 -0.005319481 -0.021408362
0003c0 9d f9 6c 3d 33 cf e8 3c 05 48 8a bd 70 9d ae bd
       0.057855237 0.028419113 -0.06752018 -0.085261226
0003d0 65 95 8b 3d 42 87 a8 3d ba 3b 9a bd a2 44 81 3d
       0.06815604 0.082289234 -0.07530923 0.06311919
0003e0 0a 82 6f 3c 15 f9 80 3d 35 6c a7 b9 66 a3 8e bd
       0.014618406 0.062975086 -0.00031933343 -0.069647595
0003f0 4e e3 0e 3d 0d 16 7f 3b cb 83 1b 3c 10 5a 34 bd
       0.034884743 0.0038923055 0.009491871 -0.044031203

feat_enc.0.bias f4 [64]
000000 66 ef 1e bd 8a 31 f5 bc 55 e1 21 bd b5 4b a3 bd
       -0.038802527 -0.029930849 -0.039521534 -0.07973424
000010 a1 08 3a bd 62 c2 43 bd cc 5b b1 3d 50 24 b6 bd
       -0.045418385 -0.0477928 0.08660087 -0.08893645
000020 32 34 8a bd 57 c4 8f bb 5a 61 64 3b fa c0 a8 bd
       -0.06748237 -0.004387419 0.0034848065 -0.08239932
000030 c2 1f ef 3c 7e 1c 9b 3d 61 52 ff bc 2e eb fd bc
       0.029189948 0.07573794 -0.031167211 -0.030995931
000040 5d 37 c3 3c 44 46 79 3d 86 b4 24 bd 98 07 45 3d
       0.02383011 0.060858026 -0.040211223 0.048102945
000050 9a e9 b2 bd 34 3e b5 bb 1e ac c9 bd 24 71 9e 3d
       -0.08735962 -0.005531097 -0.09847282 0.077364236
000060 ab 4f 9f bd b7 29 1e 3d de b7 af 3d 8e 0a a0 3c
       -0.07778867 0.038614 0.08579992 0.019536283
000070 08 54 59 3d 2f f7 b3 bd 66 04 5f 3d 1a 06 9e 3d
       0.053058654 -0.08787381 0.054447554 0.077160075
000080 2d 5d 2b bd d5 9a 47 3d 57 26 27 bd 83 56 93 3d
       -0.041836906 0.048731644 -0.040808048 0.07194235
000090 2d 84 74 bd 35 2c 39 bd 14 58 3c bd b5 29 3a bc
       -0.059696365 -0.045208175 -0.045982435 -0.011362483
0000a0 0d 2e 1c bd f3 24 a0 bd 00 bb 0a bd 57 ea b9 bc
       -0.038129855 -0.078195475 -0.033869743 -0.02269475
0000b0 19 de e0 bb a0 64 d0 bc ba 7a 30 bc 4d 45 1f 3d
       -0.0068624136 -0.025438607 -0.010771448 0.03888445
0000c0 e7 88 0b 3d e1 e4 83 3d 51 16 36 bd 91 20 91 bd
       0.034066107 0.064401396 -0.044454876 -0.0708629
0000d0 32 a2 98 bd a4 28 69 3c 83 9a 59 bd a3 ff 50 3d
       -0.07452811 0.014230881 -0.05312587 0.051025044
0000e0 a0 7c b9 3d 4a 99 7d bc 20 8d 51 3d 65 b9 16 3c
       0.090569735 -0.0154784415 0.051159978 0.009199475
0000f0 4c 1a 0c 3d 85 f9 b9 bc 1a d6 28 3d 24 29 a9 bd
       0.034204766 -0.022701988 0.04121981 -0.082598

feat_enc.2.weight f4 [64, 64]
000000 d5 2a 04 be 0b 2a 86 bb a0 fe 8b 3d b2 bd fb bd
       -0.12906964 -0.0040943674 0.06835675 -0.12292041
000010 43 b8 5f bc 30 fc f0 3c ea eb ff bd d1 f5 76 3c
       -0.013654771 0.029417127 -0.12496169 0.015073256
000020 1a be ac 3c a0 0d c4 bd 90 1e e1 3d d4 ee 14 bd
       0.021086741 -0.09572911 0.109921575 -0.036360577
000030 7a ac ab bd 50 57 fd bd 48 4b 89 3b dc 15 23 bd
       -0.08382507 -0.12370169 0.0041898824 -0.03981577
000040 d9 fc 4a bc ba 5f 99 bd e0 be cb bd 66 eb bd bd
       -0.012389385 -0.074889615 -0.09948516 -0.09273414
000050 24 82 70 bd a3 7a 7d 3d ce b0 57 3c b8 0b e9 3d
       -0.05871786 0.061884534 0.013164712 0.11379188
000060 08 f6 56 3d ae 9b b1 bd 12 e9 d2 bd 62 c7 cb bd
       0.052480727 -0.08672272 -0.10298361 -0.09950139
000070 8c d9 90 3d b1 50 92 bb cf 70 ac bd 3e ef 94 bd
       0.07072744 -0.0044651856 -0.08419954 -0.07272194
000080 c2 1a ef bd cb 91 e1 3d 5f 1f 0d be a8 45 f3 bd
       -0.116750255 0.11014136 -0.13781498 -0.1187852
000090 3a 72 8b 3d ba f8 d5 bd 47 ee de 3b fe cc fa bd
       0.06808896 -0.104478315 0.006803307 -0.122461304
0000a0 dc 94 81 3d 7c ef eb 3d c0 99 f0 bd 2b 2a 81 3d
       0.06327221 0.115202874 -0.117480755 0.06306871
0000b0 ab 31 ee bd dc a8 cd bd aa 87 fa 3d 1d 86 d8 3c
       -0.11630567 -0.10041973 0.12232907 0.026431138
0000c0 c7 6b dc bb 4e 98 8a bd 88 e1 a6 bc f0 b1 d6 bd
       -0.0067267152 -0.06767331 -0.020371214 -0.10483158
0000d0 18 46 b5 3d d0 e1 a6 bc 90 48 c2 3d 12 43 ac 3d
       0.0885126 -0.020371348 0.094864964 0.0841123
0000e0 a6 82 88 bd 9d cd 89 bd 58 ed 11 bd 94 e8 b3 bd
       -0.06665544 -0.06728671 -0.03562674 -0.08784595
0000f0 dc 75 e6 bc 48 f1 00 bd ec 92 bb 3d 85 70 03 bd
       -0.028132372 -0.031480104 0.091588825 -0.03208973
000100 5d 7f b0 bb 4b 87 eb bd ae e5 cd 3d 58 a9 87 bc
       -0.0053862766 -0.115004145 0.100535735 -0.016560242
000110 e5 d6 c0 3d 98 28 a5 3c 53 51 9f 3d d1 7f 68 3d
       0.09415988 0.020160958 0.07779183 0.05676252
000120 84 7a ca 3d a0 42 d8 bd 32 d3 bc bd 9c a8 e0 3d
       0.09886649 -0.10559583 -0.0921997 0.1096966
000130 fe 29 14 be ca b6 b7 bd 0c cf f8 bd 04 76 0f bd
       -0.14469144 -0.08970411 -0.12148866 -0.035024658
000140 06 61 ef bd 49 42 05 3c 2c 9c 59 3d dc 0c 80 bd
       -0.116884276 0.008133479 0.053127453 -0.06252453
000150 d7 2e 9f 3d 2c b4 ff bd 8e 30 89 3d be 97 91 bd
       0.07772606 -0.12485537 0.06698714 -0.07109021
000160 86 ad bd bd 4e bb 96 3d 80 92 cf 3b d4 27 3e bd
       -0.092616126 0.07359944 0.006334603 -0.0464247
000170 78 c2 ef 3d aa d1 06 3d 32 62 bd 3d 30 0b ae 3c
       0.11707014 0.032914795 0.09247245 0.021245569
000180 80 0c 95 bc 78 36 f2 bd 33 48 a4 bd 04 7e 01 3d
       -0.018194437 -0.11826795 -0.080215834 0.03161432
000190 1d bb bc 3d b0 30 d6 3d 38 77 a8 bd a4 5e 04 3d
       0.092153765 0.10458505 -0.08225864 0.03231682
0001a0 aa f6 be 3d c0 a5 12 bc 6a 55 fc bd 98 ec b4 bc
       0.09324391 -0.008950651 -0.12320979 -0.022085473
0001b0 6b 6b fe bc 1b 60 9f bc be 1f db 3d 61 59 8c 3c
       -0.03105708 -0.019455006 0.10699414 0.017132463
0001c0 f5 74 a8 3d 2a ff b9 3d f2 a4 f3 bd e2 1c c0 3d
       0.08225433 0.09081872 -0.11896695 0.09380509
0001d0 56 b9 cb bd 8a 03 fa bd c1 a3 79 3d 16 b9 7c bd
       -0.099474594 -0.12207706 0.060947184 -0.06169995
0001e0 50 b8 42 bc a6 42 a3 3d fe da c7 bd 68 c8 ba bd
       -0.011884764 0.079716966 -0.09758566 -0.09120256
0001f0 39 05 0f be 40 c2 1d bb 34 68 c8 bd 93 a0 9b bd
       -0.13966836 -0.002407208 -0.097855 -0.075989865
000200 37 14 dc 3c 0f 98 9c 3d 16 98 f1 3d d8 2d ad 3d
       0.026865108 0.076461904 0.11796586 0.084560096
000210 73 10 90 bc ac 4b fb 3d 56 c2 2a be bd 6d c9 3d
       -0.017585969 0.12270293 -0.16675696 0.09835384
000220 53 79 bb 3d 1f c9 9d 3d 45 ca 57 bc ee 53 15 be
       0.09154 0.077043764 -0.013170783 -0.14582798
000230 0a b3 83 3d 80 a7 a8 bb dd 0d c5 bc f4 8b bf 3d
       0.06430633 -0.0051469207 -0.024054462 0.09352866
000240 f8 5f 20 bb 30 87 09 3e 00 e7 37 3b 97 2c 74 be
       -0.0024471264 0.13430476 0.002806127 -0.23845135
000250 e0 7d e0 bd 29 c6 06 be 2f 30 9c bd b4 49 c9 3d
       -0.10961509 -0.1316153 -0.07626378 0.09828511
000260 85 ec 00 3e d4 5e 34 be 4c 4e c4 bd 2c b9 0b bd
       0.12590225 -0.17614299 -0.095852464 -0.03411214
000270 64 ee 8c 3d e4 15 aa bd 98 b6 41 be 80 e9 c0 bc
       0.06881407 -0.083049566 -0.1891731 -0.023548841
000280 80 ad 4c 3c 6a fd 57 bd 7a 6b 77 3d f6 65 19 bd
       0.0124925375 -0.05273191 0.060405232 -0.037450753
000290 66 75 0f bd a4 44 06 3d f5 80 8a be 80 10 62 bd
       -0.03502407 0.032780305 -0.2705151 -0.055191517
0002a0 5c 90 a2 bd 38 36 f7 3d b8 3b 4a bb 49 24 80 3d
       -0.079376906 0.12070888 -0.003085835 0.06256921
0002b0 00 31 39 3d 2e d2 d8 3c 72 5f bf bd d3 5e bc 3d
       0.045212746 0.026467409 -0.093443766 0.09197774
0002c0 02 55 1f bd 00 68 36 3b cf cf 38 3d a0 a0 36 3c
       -0.03889943 0.0027832985 0.045120057 0.011146694
0002d0 80 cd 39 3d d0 52 24 bd c4 d8 60 bd b2 a8 75 3d
       0.045361996 -0.04011804 -0.054894224 0.059975334
0002e0 78 a3 74 3c 50 14 3f be 2d 51 a5 bd 24 fe 83 3d
       0.014931552 -0.18660092 -0.08072124 0.06444958
0002f0 f1 5e 3e 3e 38 10 f0 3d 1a 57 30 be 29 80 c1 bc
       0.18590905 0.117218435 -0.17220727 -0.023620682
000300 f4 18 55 3c b5 65 81 bd 20 22 ca bc c2 c3 f7 3d
       0.013006438 -0.06318227 -0.024674475 0.12097885
000310 bc 58 a8 3d 64 b0 83 bd 42 fc 23 3b 4c e4 86 bd
       0.0822005 -0.06430128 0.0025022184 -0.06586513
000320 be d5 9f 3d 75 26 9a 3c 4c 4c c0 3c 80 6c be 3d
       0.0780444 0.018817166 0.023473881 0.092980385
000330 03 b1 17 bd 70 f6 ff bd c9 2f 08 3e 68 e9 8b bc
       -0.037034046 -0.12498176 0.13299479 -0.01707907
000340 51 94 85 bc ae e3 2c bd 9e bf b5 bd 29 8a da 3d
       -0.016306074 -0.04220932 -0.08874439 0.10670883
000350 67 71 0f 3d 28 18 02 bd 22 ea c9 bd 28 e7 dd bd
       0.03502026 -0.03176132 -0.098591104 -0.10835105
000360 c6 e3 51 3d 1b b3 89 bd c0 7a 52 bb 6e bc 8a bd
       0.051242612 -0.06723615 -0.0032116622 -0.06774221
000370 3a a7 ba 3d c0 01 1d 3d 79 a5 2e 3e 9a 85 ad 3d
       0.09113927 0.038331747 0.1705531 0.08472748
000380 84 f3 4b 3d cf 51 22 be b9 d2 90 bd e2 98 0a be
       0.04979278 -0.1585152 -0.07071442 -0.13534883
000390 11 79 0a 3c 48 14 d3 bc 66 ea cc 3d d8 f9 d5 bd
       0.008451716 -0.025766507 0.100056455 -0.104480445
0003a0 fa b0 0a bd 34 17 28 bd 4a 62 36 3c 1e c7 cc 3d
       -0.033860184 -0.041037753 0.011131832 0.09998916
0003b0 ff e5 1f 3d 6f 79 f2 bb 00 94 e2 bb 1c 34 0f 3c
       0.0390377 -0.00739973 -0.0069146156 0.008740451
0003c0 f3 7b ad bd d0 33 bf 3c 76 f6 1c 3d 50 d9 81 3c
       -0.08470907 0.023340136 0.03832098 0.015850693
0003d0 62 a2 8f bd b6 46 d5 bd 3f ea 1a 3e 45 c6 fd 3d
       -0.07013394 -0.10413878 0.1512842 0.123913325
0003e0 e0 b4 d7 3a de 63 9c 3c 32 6f 4d bd 50 62 df 3c
       0.0016457103 0.01909059 -0.050154872 0.027268559
0003f0 ce 28 9f 3d 0a 4a f1 bd 9a bd ff 3c 7b 0f 96 3d
       0.07771455 -0.117817 0.031218339 0.073271714

feat_enc.2.bias f4 [64]
000000 3f 43 e8 bc 7a 93 9b bd c5 70 b3 bd 17 b1 3a 3d
       -0.028352378 -0.07596488 -0.087617435 0.045579042
000010 b4 f5 a8 3d d8 7d 9c bd 07 eb 79 bd 8d a9 1b be
       0.08249989 -0.0764119 -0.061015155 -0.15201397
000020 7a 4e a8 bd 71 00 ef bd 38 9f 84 bd 9f 8f 94 bd
       -0.08218093 -0.11670006 -0.06475681 -0.07253956
000030 cb e8 33 bd 19 ac 53 bd 9a 3c c5 38 72 c7 f0 3d
       -0.04392318 -0.051677797 9.40498e-05 0.11756791
000040 40 3f b6 bd aa f2 02 bd 30 ea 0e 3d 8e 39 d9 3d
       -0.08898783 -0.031969704 0.034891307 0.10606681
000050 db 44 9d 3c b0 99 4d 3d d7 b6 cd 3c 0d 20 9e bd
       0.019197872 0.050195396 0.025111599 -0.07720957
000060 a5 e0 a0 bd 0a 6d b6 bc 60 2d c5 3c 54 4e 45 3d
       -0.078553475 -0.02226879 0.024069488 0.048170403
000070 b3 14 9d 3d e8 ae 2a 3d 73 ca 48 3c d6 9c 4e 3d
       0.07669964 0.04167071 0.012255299 0.05044254
000080 64 21 4c bd 2f d0 86 3d 55 4b f0 3c 8a 76 41 bc
       -0.04983653 0.065826766 0.029332796 -0.011808047
000090 fe e6 a0 3d 29 71 8b bd 45 38 ab bc 99 f1 e8 bd
       0.07856558 -0.06808693 -0.020900855 -0.11374206
0000a0 50 78 08 3a 1e e5 1d 3c 9d f7 0a bc 5d 96 e8 3d
       0.0005205916 0.009637145 -0.008481887 0.113568045
0000b0 2a dd d5 bc b1 8c c3 39 06 db 1b bd 71 ed 87 bc
       -0.026106436 0.00037298122 -0.038050674 -0.016592713
0000c0 90 fb bd 3a 18 85 1f bc 02 07 9b bd 8e 31 a7 bc
       0.0014494527 -0.009736322 -0.07569696 -0.020409372
0000d0 f1 46 af bd 6a 10 82 3d 84 01 f7 3d 30 f4 9f bd
       -0.08558453 0.06350787 0.12060836 -0.07810247
0000e0 00 24 ad bc 79 2d ed bd e0 5c 58 bd 23 e2 b3 bd
       -0.02113533 -0.11580939 -0.052822948 -0.087833665
0000f0 5c 88 c6 3d af 1a 77 3d 1f d3 09 bd 1d 7a 0f 3e
       0.09693977 0.06032818 -0.033648606 0.14011426

msg1.0.weight f4 [64, 128]
000000 2c 0a ad 3d bf fd 61 3d 01 7a 3e 3d 39 e6 75 3d
       0.08449206 0.05517363 0.04650307 0.06003401
000010 e9 c3 38 bd 2c 6d 09 3d 07 03 34 bd ad 42 3e bd
       -0.04510871 0.03355138 -0.0439482 -0.046450306
000020 ad d9 83 3d 7b ce 91 bc 97 92 72 3c ee f8 0c 3d
       0.06438003 -0.017798653 0.014805458 0.034417085
000030 d2 85 66 3c 1b c0 51 bd 89 42 12 3c 6c 20 1f 3d
       0.014069991 -0.051208597 0.008926996 0.03884928
000040 de ea ac 3d ae bb 80 bd 3c fc e1 bc 9b a3 f3 3c
       0.08443235 -0.06285797 -0.027586095 0.0297411
000050 97 4b fc 3c 28 0e 2e bd 76 58 12 bd ed 27 42 3d
       0.030797763 -0.04249397 -0.035728894 0.047401357
000060 91 04 2b 3d 97 f9 4a bd 9f 37 89 bd fc 55 34 3d
       0.0417524 -0.049554434 -0.06700062 0.044027314
000070 db 0e 38 bd 00 5e b5 3c 60 43 0f bd c1 3a 43 3d
       -0.044936042 0.02213955 -0.034976363 0.047663454
000080 e4 70 31 3d 4c f8 2d 3d ef c4 ec bc 95 4f 0d 3c
       0.04332055 0.042473122 -0.028902499 0.008624931
000090 1a e8 b2 bc a2 fb a6 bd 50 93 8a bd b3 53 2c bd
       -0.02183919 -0.08153464 -0.06766379 -0.04207201
0000a0 e9 52 b8 3c 63 e6 66 bd 74 18 9c bd 46 24 3e 3d
       0.022500472 -0.056372058 -0.076218516 0.04642131
0000b0 1b de 3f 3d 26 4a 12 3d 0e 28 1e 3c 56 71 a0 bd
       0.046842676 0.035715245 0.0096531045 -0.07834117
0000c0 ce c6 84 bd 8e 05 56 bc 48 1a 6f bd 8f c0 7b bd
       -0.064832315 -0.013062848 -0.058374673 -0.061462935
0000d0 3a 55 91 3c 77 83 5a 3d a0 bd 19 3d d2 df 6d bd
       0.017740835 0.05334803 0.037534356 -0.05807478
0000e0 9f 4b 58 3d 7e 12 92 3d 0b 25 ac 3d f8 04 9c bd
       0.052806493 0.07132433 0.08405503 -0.07618135
0000f0 ea 15 4d 3c 32 2e 25 3d 5a 74 76 3a bb 04 da bc
       0.012517432 0.04032726 0.0009401493 -0.026613584
000100 5e c2 12 3d 3c ca af bd 41 80 c8 bd 30 7b dc bd
       0.035829894 -0.08583495 -0.097900875 -0.10765684
000110 aa 67 0e bd 9b bc 3d bd c8 c9 2d 3d 37 44 4a bd
       -0.03476683 -0.046322446 0.04242876 -0.04938146
000120 95 5c 98 bc 8e 59 05 3e 5c 96 f8 bc 0b 5e 40 ba
       -0.018598834 0.13022444 -0.030345134 -0.0007338232
000130 e1 5e 2b bd bd 33 a9 bd 84 bd 0e bd 48 94 aa bc
       -0.04183853 -0.082618214 -0.034848705 -0.02082266
000140 2c 39 b3 3d bf f4 0b bd 06 39 64 bc 70 e8 bb bd
       0.08751139 -0.034168955 -0.013929611 -0.09175193
000150 bd 57 c4 bb ab 65 86 3d f7 68 60 bd b6 ca 87 3c
       -0.0059919045 0.065623604 -0.054787602 0.016576152
000160 24 f5 92 bd 3b 83 a5 bd 8d c5 28 3c 93 ad 02 3b
       -0.07175663 -0.08081671 0.010301006 0.0019939884
000170 e5 81 5a 3c e8 5b b1 3d be 58 42 bd be 33 4a bc
       0.013336633 0.08660108 -0.047447912 -0.012341438
000180 42 f9 6b bd 44 ec ae bd 21 59 71 3e bb 62 a9 bc
       -0.057610758 -0.08541158 0.23569156 -0.020676961
000190 fa ae cd 3d 3a a1 60 3c 14 cc ff bc 4b d2 ab bd
       0.1004314 0.013710314 -0.031225242 -0.083897196
0001a0 8e 58 02 bd 54 4b fe 3c 47 4b 0b 3a ef db e7 3c
       -0.031822734 0.031041779 0.00053136464 0.028303115
0001b0 9d 7f 83 bc 54 12 40 3d 47 94 c8 bd 73 75 96 bd
       -0.016052062 0.04689248 -0.09793907 -0.073466204
0001c0 91 39 10 3c 21 88 8d 3d c9 cf a6 3d 0b dd b3 3a
       0.008802787 0.0691073 0.081451006 0.0013722492
0001d0 92 c6 e2 bc 21 c3 5a bd f0 0e 8d 3d 16 c5 d5 bc
       -0.027682576 -0.053408746 0.06887615 -0.026094954
0001e0 11 07 5c bd 75 a2 4a 3c c9 12 91 3d 79 55 24 3b
       -0.053717677 0.012367834 0.07083661 0.002507536
0001f0 cd 2f 36 3d 6d 77 45 3c 10 ab 60 3c 4f ec 98 bc
       0.04447918 0.012052399 0.0137126595 -0.018667368
000200 00 30 88 bd f3 d9 a7 bd c0 13 79 bd 85 d0 d8 3c
       -0.0664978 -0.081958674 -0.06080985 0.026466617
000210 b0 9a 27 3d 41 e7 8a 3d 4a d6 7d bd dd d1 57 3d
       0.040919006 0.067823894 -0.06197194 0.052690376
000220 35 97 90 3d 7b 6d b7 bd e2 68 8e bd 63 b4 e1 bc
       0.070600905 -0.089564286 -0.069535986 -0.027551835
000230 2b 9d 87 bc b9 36 c0 3c 7b 3e bc ba 4b d4 c4 bc
       -0.016554436 0.023463594 -0.0014361882 -0.02402701
000240 b5 10 37 3d b1 d4 8e bd 07 00 67 3d 6d 2c e6 3c
       0.044693667 -0.069741614 0.05639651 0.028097356
000250 43 86 67 3d d9 f4 d4 3c a1 69 a7 bd 71 77 c5 3c
       0.056524526 0.025995659 -0.08174444 0.024104806
000260 7a 8c 6f 3c 6e 9f e6 3c e8 ec 86 bd 19 3c 6f 3d
       0.014620895 0.028152194 -0.06588155 0.058406923
000270 be 2e 4a bd 86 96 9c bd 6e 52 d8 3a ec 18 85 3d
       -0.049360983 -0.076458976 0.0016504058 0.06498894
000280 4e 43 85 bd 6a 1a 7a bd 21 c9 75 bd 53 99 66 3b
       -0.06506978 -0.061060347 -0.060006265 0.0035186603
000290 64 a7 55 bd b3 32 bf bd 9c a3 4a bd 06 92 fc 3c
       -0.05216159 -0.09335842 -0.049472436 0.030831348
0002a0 58 cb bc 3d 9b 27 b1 bb 0c 5a 84 3b 07 92 89 3d
       0.09218472 -0.0054063327 0.0040390547 0.06717306
0002b0 7e fb 95 bd 41 54 6d bd 1e 15 45 bd da 45 68 3d
       -0.07323359 -0.05794168 -0.048115842 0.05670724
0002c0 64 5f 57 3d 8f 96 ad 3c ec a0 52 bd ce 22 09 3c
       0.052581206 0.021189956 -0.051423 0.0083701145
0002d0 83 fe 8e 3d dc 6f aa 3c 17 3a 98 bd 4f 48 bc 3d
       0.06982138 0.020805292 -0.07432955 0.09193479
0002e0 3c 6d b3 bc 15 38 91 3d 51 b6 43 bd ed c2 98 3c
       -0.021902673 0.07090775 -0.047781292 0.018647635
0002f0 8e 57 95 bd 6a 67 e4 3b 10 4e a3 bd 4f 02 4a bc
       -0.0729209 0.0069703357 -0.079738736 -0.012329652
000300 cf d3 80 3d 19 19 b4 3d 8d 78 c3 3c a4 01 a5 3d
       0.06290399 0.087938495 0.023861194 0.080569535
000310 78 6e c3 3d 24 13 c1 bc 0d 10 ac bd d9 d2 40 3d
       0.095425546 -0.023568697 -0.08401499 0.04707608
000320 fe c2 ad bd 6d 26 47 bc 07 ca 62 bb e3 e0 42 3d
       -0.084844574 -0.0121551575 -0.003460528 0.04757775
000330 3a 55 30 3d c4 db d5 3c 12 60 c0 3d 71 fb a7 bd
       0.04305003 0.026105769 0.09393324 -0.082022555
000340 c3 2e d7 bc 71 fd 28 3d 81 b9 c1 bc 37 e2 95 3d
       -0.026267415 0.041257326 -0.023648025 0.07318538
000350 77 11 34 bd 72 7b 9e bc 11 70 fd 3d 21 a1 89 3c
       -0.04396197 -0.019345973 0.123748906 0.016800465
000360 2a b6 eb bc 8e e4 72 bc 7b b0 3f bd e0 57 79 3d
       -0.028773386 -0.0148249995 -0.046799164 0.06087482
000370 b4 2f 92 3d 35 9b 51 bd 3a e8 87 3c f9 1b 44 bd
       0.07138005 -0.051173408 0.016590226 -0.04787824
000380 06 9f d0 bc 66 b4 ec 3b d4 9a 58 bd 13 a5 3d bd
       -0.025466453 0.0072236536 -0.05288203 -0.046300005
000390 db 8a 38 bd ab 10 9d 3c 47 b0 39 3d 9f 1a d5 3c
       -0.045054298 0.019172987 0.045334127 0.02601367
0003a0 77 01 70 bd 9e 48 c0 3d 3b a8 bf 3b 6a eb 7f 3d
       -0.058595147 0.09388851 0.005848912 0.062480368
0003b0 0c 35 f5 bb 57 b4 8d 3d 81 75 c4 bd 59 a1 5f 3d
       -0.0074831303 0.06919163 -0.095927246 0.054597232
0003c0 34 c2 15 bd 9b 04 71 bd 5b 35 87 bd bd 53 bd bc
       -0.03656216 -0.058842283 -0.066019736 -0.023111219
0003d0 96 4f 45 3d e9 c4 81 bd 6b d8 9a bd 15 12 e6 bc
       0.048171602 -0.06336386 -0.0756081 -0.028084794
0003e0 e1 0c 81 3d 6d fa 78 bd 32 41 af bc 6a 93 7e bc
       0.063012846 -0.0607857 -0.021393392 -0.015538076
0003f0 24 00 2f bb 47 12 0d bd 6c eb 88 3d 48 a0 a8 bc
       -0.0026702965 -0.03444126 0.06685528 -0.02058424

msg1.0.bias f4 [64]
000000 86 de 76 3c 68 b0 b5 bd 6c 79 4d bd 96 15 eb 3a
       0.015067702 -0.088715374 -0.050164625 0.001793551
000010 eb 15 48 3c d4 b7 b6 3c 0b c9 7e bd ac 55 7d bd
       0.012212257 0.022304453 -0.06220345 -0.06184928
000020 43 8f 65 3d 52 b0 6e 3d 35 b2 10 3c 8c dc dd 3b
       0.05604483 0.05827362 0.00883155 0.006770676
000030 34 fe 3c 3c bb 13 21 bb 32 94 c3 3c fa 94 cf bc
       0.011535216 -0.002457841 0.023874376 -0.025339592
000040 1a 5c 03 be 38 00 2d bd d3 4a 42 bc c7 2b 24 3d
       -0.12828103 -0.042236537 -0.01185866 0.04008081
000050 17 fd e5 bd 43 36 8d bd 68 3c 43 bd fa 54 73 bd
       -0.11229914 -0.06895115 -0.04766503 -0.05940721
000060 4b b3 ac bd 99 ee b5 bd 4c 93 81 3d a8 31 b9 bd
       -0.08432635 -0.088833995 0.06326923 -0.09042674
000070 79 7d 74 3d 01 fe 84 3c 3d 2c 06 3c cf 23 c7 bd
       0.059689973 0.0162344 0.008189258 -0.09723627
000080 5b e5 2d 3d 68 d0 d1 bd ae 80 a4 bc 21 aa da bc
       0.04245506 -0.102448285 -0.02008089 -0.026692452
000090 11 55 12 3d cf 4f b2 bb f6 09 19 bd 42 18 74 3d
       0.035725657 -0.005441643 -0.037363015 0.059593447
0000a0 5e 0e e9 bd 33 e6 90 bb d4 10 a9 3b 21 bf 17 3d
       -0.113796934 -0.004421973 0.005159477 0.03704751
0000b0 e5 be fb 3c eb d9 e1 bb 6a 26 c0 bd 9b cb 9f bc
       0.030730674 -0.006892433 -0.09382327 -0.019506266
0000c0 8a dd ae bd e2 cf bd bd 95 4a 8b bd f2 8c d9 3a
       -0.08538349 -0.09268166 -0.06801335 0.0016597791
0000d0 be 47 c7 bc 5d eb 43 3d cf d0 df bd b0 91 97 bd
       -0.024326202 0.04783188 -0.10928499 -0.074008346
0000e0 be f6 91 bd bb e1 d1 bc 40 08 a4 bb a1 b7 43 bd
       -0.071271405 -0.025620332 -0.0050058663 -0.047782544
0000f0 0b e9 80 bd 1e bb 64 3d c3 9d 0c bd 5e 8d 35 3d
       -0.062944494 0.05584251 -0.03433014 0.04432427

msg1.2.weight f4 [64, 64]
000000 4c 9d db bd 2e a5 86 3c 48 80 6f bd 2b ad b2 3c
       -0.107233614 0.016436186 -0.058471948 0.021811089
000010 60 0e 95 bd 42 ee ff 3c 57 e6 9d 3d b2 b0 80 bc
       -0.072781324 0.03124154 0.077099495 -0.015709255
000020 b8 4a 3c be 84 89 d4 bd 30 93 86 bd c2 00 1f 3d
       -0.18387878 -0.103777915 -0.065710425 0.038819082
000030 06 b8 80 bd c6 14 0a bb 83 6e 36 bc 36 44 f9 3c
       -0.062851 -0.002106951 -0.0111347465 0.030428033
000040 7b bb f6 bd bb 73 23 be a7 ac c6 bd 52 06 bf 3b
       -0.12047478 -0.15962116 -0.097008996 0.005829611
000050 0d 04 e0 bd a1 a9 49 3d 9e 58 c0 bd 13 14 0b bc
       -0.109382726 0.049234036 -0.093919024 -0.008488673
000060 62 d4 a1 bd 5a 1c b2 3c 16 08 e5 bd e1 cf 78 3b
       -0.07901837 0.021742035 -0.11183183 0.0037965702
000070 26 88 4a be 90 34 f9 3d 67 dd e8 bd 19 09 97 bb
       -0.19778499 0.121682286 -0.11370354 -0.004609239
000080 5f 2a 30 3d 46 c3 2a be f9 c4 74 3d 29 e0 22 3d
       0.04300916 -0.16676053 0.05975816 0.039764557
000090 d5 1e a6 3c 74 72 81 bd 1a 82 16 be 84 ac 00 3e
       0.020278374 -0.06320658 -0.14698067 0.1256581
0000a0 e7 0d 94 3d b7 6c 8f 3d 95 9b bb bd 93 83 15 3d
       0.07229214 0.070031576 -0.09160534 0.036502432
0000b0 ff 33 8d 3a 0a d9 32 ba af 48 8d 3d 5b 30 87 bc
       0.0010772942 -0.00068225025 0.06898629 -0.01650255
0000c0 42 26 bb 3d 0d 84 e8 bd c1 53 e6 bd 3f 59 2e bb
       0.091381565 -0.11353312 -0.112464435 -0.0026603488
0000d0 4c 63 53 bd c8 98 34 be 8c 4a 89 3c 59 15 e3 3d
       -0.05160837 -0.17636406 0.01675918 0.11088056
0000e0 bd 66 db 3d b9 8f 38 bd 29 e2 94 3d 2e a3 e7 bd
       0.10712955 -0.04505894 0.07269699 -0.11310421
0000f0 3f 1a db bc 61 83 98 3d c9 3e 1c bd 16 cb e0 bd
       -0.026745914 0.074469335 -0.038145814 -0.109762356
000100 1c 74 8c 3c e6 95 7f 3c 78 53 76 3c b5 4f 8a bc
       0.017145209 0.015599703 0.015034549 -0.01688371
000110 d8 45 1b 3d 8b 81 69 bc b8 32 d2 bc 33 2f bd bd
       0.037908405 -0.014252077 -0.02565895 -0.09237518
000120 a8 1d 80 3e 31 b2 ad bd 10 ea 99 3e d6 8c 5a 3c
       0.25022626 -0.08481253 0.30061388 0.013339242
000130 f2 8d 04 3d 1e 2e 05 be 16 2f cd bd 03 6c f6 bc
       0.032361932 -0.13005874 -0.100187466 -0.0300808
000140 5d 8a bd 3d 91 02 c9 3d 7f bf 8d bd 49 20 fe 3c
       0.09254906 0.09814943 -0.069212906 0.031021254
000150 10 50 ba 3d de a8 8e 3d f4 66 96 bd b6 5f 6d bd
       0.09097302 0.069658026 -0.073438555 -0.057952605
000160 8d d2 0a 3d 72 85 e0 bd 4d 6d 52 3d 4d 77 e6 ba
       0.033892203 -0.10962953 0.05137377 -0.0017583162
000170 b1 d4 19 3e 64 ba e5 3d 45 a0 60 3b 5e c9 eb 3c
       0.15022542 0.11217192 0.0034275216 0.028782543
000180 1c 98 bb bd dc 35 b5 3d ff 6e 13 3d a9 70 4f be
       -0.09159872 0.088481635 0.035994526 -0.2025782
000190 c8 1f 18 be 61 2f df bb 21 42 ee 3d 50 24 99 3c
       -0.14855874 -0.006811068 0.11633707 0.018694073
0001a0 86 64 92 3c ba 0c a4 3d dd e1 8f 3e 73 ec 1e 3d
       0.017870199 0.0801024 0.28102008 0.038799714
0001b0 61 23 c9 bc 6d 2a fc 3c 7f 4e 28 bd c1 a0 2d 3e
       -0.024553003 0.030781949 -0.041090485 0.16955854
0001c0 dc ee 8b 3d dd 94 3e 3e 40 b6 d7 bd 0c 9d a7 bc
       0.06832668 0.18611474 -0.10532808 -0.020460628
0001d0 10 1e 22 bd 0e 47 4b 3e 94 c2 aa 3d 80 bc 88 bd
       -0.03957945 0.19851324 0.08337894 -0.066765785
0001e0 41 51 e6 3d 47 4c a2 3c cd c7 8a 3d b2 00 ce bd
       0.11245967 0.019811762 0.0677639 -0.10058726
0001f0 73 4a 5b bd ee 7a 70 3d 72 03 9c 3b 05 e4 10 3e
       -0.053537797 0.058710985 0.004761153 0.14149483
000200 d3 dd 5c 3d 09 35 e7 3d 76 a8 20 3d 44 e2 ec bd
       0.053922486 0.112894125 0.039223157 -0.11566594
000210 c0 82 b3 bc fb 14 9f 3b a5 fa 57 bd 48 48 c5 3d
       -0.021912932 0.004854796 -0.052729268 0.09632927
000220 81 72 86 3e 62 d5 50 bd d7 ba 37 3e dd 03 2d 3e
       0.26259235 -0.050984748 0.17942367 0.16896005
000230 6d b3 94 bd f9 cd 33 3c f8 1b 66 bd 75 bf bb 3d
       -0.07260785 0.010974401 -0.056179017 0.09167377
000240 da 6c 1f 3e 05 58 4e 3c 34 cc 29 3d 65 08 c5 3d
       0.15568867 0.012594228 0.04145451 0.09620742
000250 d0 be f0 3d 4b ac d8 3d 8e 88 21 bd d6 8e 61 3d
       0.117551446 0.10579737 -0.03943687 0.05506786
000260 66 4b b2 bd ce 18 9f bd ea a2 9e 3d 5c b5 0e bb
       -0.08705787 -0.07768403 0.07745917 -0.002177558
000270 c3 54 50 3e 6e 4b a4 bd 2f 8c 83 3d 66 94 ac bc
       0.20344834 -0.080221996 0.06423222 -0.021066856
000280 ba 60 88 3d 2a 95 12 3e ed 02 b0 3d e8 58 8e 3d
       0.06659074 0.14314714 0.08594308 0.06950551
000290 29 fe a2 3d 1b 5f cf bc 49 a4 10 3e 0d c9 10 be
       0.079586335 -0.025313905 0.1412517 -0.14139195
0002a0 ca 27 2a 3c 98 c8 a9 3d 8a 96 a0 3e 0b d8 2b bd
       0.010385463 0.08290213 0.31364852 -0.04195408
0002b0 32 2e fe b9 de fb 57 ba 0d 0d eb bc a7 a8 c8 3d
       -0.00048481073 -0.000823913 -0.028692747 0.09797793
0002c0 74 4e b2 bd 3d 48 47 3d be 68 02 3d 5c 5c 41 3d
       -0.0870637 0.048652876 0.03183817 0.04720722
0002d0 20 9a bc 3b 9e e7 49 3e 23 68 90 3d 95 e5 8f bd
       0.005755678 0.19717261 0.070511125 -0.07026211
0002e0 cd e7 66 3c 3f 5e 07 3c 3a db 90 3d 32 1e 6f bd
       0.014093352 0.008262216 0.07073064 -0.058378406
0002f0 c8 51 a7 bd d8 03 b1 3b 41 0d 3f bd a8 3b ad 3d
       -0.081698954 0.0054020695 -0.0466435 0.08458644
000300 19 bf 88 bc 0f e6 26 3d 2f 85 80 3d cb e5 9b 3d
       -0.016692685 0.040746745 0.06275403 0.07612189
000310 0b 82 a0 3d c5 dc 01 3d cb 0d 13 3d bf 38 c9 bd
       0.07837304 0.031704683 0.035901826 -0.098252766
000320 cc 77 39 bd 19 51 84 bd 7e 8f a5 3d 69 d2 3e bd
       -0.045280263 -0.06460781 0.080840096 -0.04658738
000330 7a b5 39 b9 d4 a0 33 3d 5a dd 85 bd dd 8b 96 bb
       -0.0001771058 0.04385455 -0.0653636 -0.0045943097
000340 29 23 13 be 28 0d 92 3c c5 61 4d 3d 6d a8 ac bc
       -0.14368881 0.017828539 0.05014207 -0.021076405
000350 cf 29 24 3a c3 67 c5 bd 94 02 26 3c 84 69 05 be
       0.00062623335 -0.096389316 0.010132451 -0.13028532
000360 bf c2 53 be 14 54 df 3d fd 27 a7 bd af fb b5 3d
       -0.20679758 0.109047085 -0.08161924 0.088858955
000370 2c 13 51 bd a6 b5 e5 3d f6 18 7b bd 0b fb 94 3d
       -0.051043674 0.11216287 -0.0613031 0.07274445
000380 8b 75 94 3c 92 5a 90 3d 61 63 20 3c 82 bb dc 3e
       0.018122455 0.07048525 0.009789319 0.43111807
000390 c7 12 6f 3d 66 13 ed bd 1d ec bc 3d 0a 5f d1 bd
       0.058367517 -0.115759656 0.092247225 -0.102232054
0003a0 82 b0 c6 bd 7f 10 aa 3d e2 b2 27 3d a1 68 fa be
       -0.09701635 0.08303928 0.04094208 -0.4890795
0003b0 24 de dd 3d ce ce 0d be 58 8a e2 3d 6a ac 15 be
       0.108333856 -0.13848421 0.11061543 -0.14616552
0003c0 99 8c 36 bc 19 c8 75 be fb 35 6a bc 69 bd 3e 3c
       -0.0111419195 -0.24002112 -0.0142950965 0.011641839
0003d0 b0 2b 2e bd d3 1e fc bd c9 e3 27 3b e9 dc f5 3b
       -0.042522132 -0.12310567 0.0025617948 0.007503141
0003e0 e8 79 8c 3b 58 6f 84 bd cd 80 d8 bd 77 ba 40 bb
       0.0042869933 -0.0646655 -0.10571442 -0.0029408017
0003f0 9e c4 bb bd 3b 5f 95 3d 74 bf 8a bc cc 2b e2 3d
       -0.09168361 0.072935544 -0.016936995 0.1104351

msg1.2.bias f4 [64]
000000 5e 41 b5 bc 94 de b1 3c 2f 0e d1 bb 27 c3 87 bc
       -0.022125896 0.021712579 -0.0063798646 -0.016572548
000010 25 b0 8b bc 76 ee b8 bc e4 29 c7 3d 12 8e fc bc
       -0.017051766 -0.022574645 0.09724787 -0.030829463
000020 e0 37 33 bd 0f 23 ea bb 7d e7 b1 bd dd 2e 37 3d
       -0.04375446 -0.0071452926 -0.08686731 0.044722427
000030 53 96 c8 3c fb 7c 3c bd 9a f5 9e bd 43 8d 95 3c
       0.024485743 -0.04601763 -0.077616885 0.018255835
000040 02 d6 bd 3c 61 d5 3c bd 80 94 00 bd d6 a9 52 39
       0.023173336 -0.04610193 -0.03139162 0.0002009043
000050 3e d4 df 3d 0b 46 c2 3c fd 51 b2 bc e0 a2 b1 3c
       0.10929154 0.02371504 -0.02176761 0.02168411
000060 d4 f9 9a bd fb 3d 06 3d 0e 42 97 3d fc 4e 1b bd
       -0.07567182 0.032773953 0.07385646 -0.037917122
000070 2c 20 3d 3c c1 1c 0a 3d cf 39 e5 bc 92 53 6b bd
       0.011543315 0.033718828 -0.027981667 -0.057452746
000080 af fb 87 3d 15 f4 5d bc 5d bf 7e 3d bd 87 b8 bc
       0.06639802 -0.013546963 0.062194217 -0.022525663
000090 20 f5 ea bc 2c c8 61 bd 04 34 ad bd 3d 8d 5b bc
       -0.028681338 -0.05512254 -0.08457187 -0.013400373
0000a0 73 be c3 3d 76 74 93 3b ac 40 62 3c 92 8a a2 3d
       0.0955781 0.004499967 0.013809364 0.079365864
0000b0 b5 07 95 3c 66 b3 91 3d ac b7 a1 bd d7 60 38 bd
       0.018192152 0.07114296 -0.07896361 -0.04501423
0000c0 b4 f5 0d bd 21 de 55 3d 82 36 ed 3c f5 26 c5 bd
       -0.03465815 0.05221379 0.028956655 -0.09626571
0000d0 5c e2 95 3d 06 3a b1 3c 7c 0c 39 3d 3b cc ba 3d
       0.07318565 0.021634113 0.04517792 0.09120985
0000e0 40 65 b3 3d 2f b7 80 bd 89 9b 84 bd ab a7 3a 3d
       0.08759546 -0.062849395 -0.064749785 0.045570057
0000f0 03 2e 61 3c e4 68 a2 3d 13 cd b0 3c e7 41 99 bd
       0.01374388 0.079301625 0.021582162 -0.07483273

upd1.0.weight f4 [64, 192]
000000 d7 b7 87 bc db 27 cf bc 0a 59 9f bd 9c 99 8d bd
       -0.016567154 -0.02528756 -0.07780655 -0.06914064
000010 a5 c9 4b 3e 40 cf f9 3b 73 02 0d be 8f 05 42 3d
       0.1990114 0.007623583 -0.13770466 0.047368582
000020 68 bd 7a bd 4d cd 32 3d 79 ee d3 bd 92 4a 21 bd
       -0.061215788 0.04365282 -0.103482194 -0.039377756
000030 c7 a3 09 bd 4f 97 59 3d e7 30 8b 3d 00 de a3 bd
       -0.033603456 0.053122815 0.06796437 -0.080013275
000040 2d cf 80 bd 87 92 a1 bd ef b3 52 bc 1e 73 59 bc
       -0.06289516 -0.07889276 -0.012860282 -0.013272075
000050 b0 96 92 3d 38 2b 25 3d b8 11 60 3c b3 b3 47 3d
       0.071576476 0.04032442 0.0136760995 0.04875536
000060 e9 75 d7 bc 9a c0 93 bc 67 89 27 3c ec 88 25 3d
       -0.026301341 -0.018036176 0.01022563 0.040413782
000070 fa 4e 9e b9 44 ce 45 bc 61 bf 47 3b f0 99 d5 bd
       -0.0003019495 -0.012073103 0.003047906 -0.10429752
000080 d1 da 02 bd 03 db 5a bd 76 b0 00 bf 7c 8a 0e be
       -0.03194696 -0.053431522 -0.5026926 -0.13920015
000090 14 47 4e bd 89 4a 66 bd 85 c0 68 bd bc cb 80 3d
       -0.050360754 -0.056223426 -0.056824226 0.06288859
0000a0 5a aa b7 3a cb 5c 13 bc 11 4b 79 38 a8 9d 94 3c
       0.0014012561 -0.008994292 5.9436137e-05 0.018141583
0000b0 e1 db e1 3c 5c f0 5d bc 27 77 2b bb f6 a5 53 3c
       0.027570667 -0.013546076 -0.002616355 0.012917986
0000c0 5c 7a 18 3d b1 d5 91 3b a2 46 48 bd f7 62 05 be
       0.037226066 0.004450523 -0.048895486 -0.13026033
0000d0 8a 78 3c bd 46 a8 39 3d 3c b8 a0 3b cb d3 5f bd
       -0.046013393 0.045326494 0.004904775 -0.05464534
0000e0 8c 9e 59 3c 7d 99 a4 3a 96 7f 3f bd 1b 30 41 3d
       0.013282429 0.001255795 -0.046752535 0.047165018
0000f0 90 c5 03 bd c2 c3 9d bd 07 4d 81 bd 49 fa 14 be
       -0.032170832 -0.077033535 -0.0631352 -0.14548601
000100 a4 bf 4d 3d 24 e9 b2 bc 55 c6 c1 bd ab c9 84 bd
       0.05023159 -0.021839686 -0.09461657 -0.064837776
000110 53 7d 21 3d 64 2e 9a bc 75 39 af bd 5c 23 c8 3b
       0.03942616 -0.018820949 -0.08555881 0.006107731
000120 c9 2f c7 bc 46 3a af bc a2 7a 86 bd 60 3b 91 bd
       -0.024314778 -0.021390092 -0.06566359 -0.07091403
000130 9f 4a 9e bd 46 d8 78 3d 0d 1c b7 3c c8 ab 92 3d
       -0.077290766 0.06075313 0.022352243 0.07161671
000140 3d 24 4b bc 29 5d 2a bd d7 cb 7b 3b 29 60 c2 3c
       -0.012398777 -0.04159275 0.0038421059 0.023727493
000150 28 ad 05 bd 9a 16 25 3d 3d 77 86 bc e5 df d7 3c
       -0.032635838 0.040304758 -0.01641428 0.026351878
000160 25 83 49 3d 8d e2 17 3d 55 ac 59 bd 1e 9e 85 bd
       0.049197335 0.03708129 -0.053142864 -0.06524299
000170 74 24 6b bd a6 3b 2b bd ee 77 90 bb 6e cd 08 3c
       -0.05740781 -0.041804932 -0.004408828 0.0083497595
000180 48 53 d1 bd 34 5f 9c bd 49 20 a6 bc 43 f0 d7 bc
       -0.10220963 -0.07635346 -0.020279067 -0.026359683
000190 f3 c7 c3 3c 23 f9 cc bc 7e 6f c1 bd b7 f6 9b 3c
       0.023899054 -0.025021141 -0.094450936 0.019038541
0001a0 b0 4b ff bc 02 de 32 bd a9 fa 97 3d 0c 40 a3 3c
       -0.03116402 -0.043668754 0.074208565 0.019928
0001b0 77 1c 0b bc 2b 2a 21 bd c2 20 31 3d cc 7c 23 bd
       -0.008490673 -0.039346855 0.04324413 -0.039913937
0001c0 14 30 cd bd 36 be 46 bd 9c ea 44 bd 98 15 1f bd
       -0.10018936 -0.048521243 -0.048075303 -0.038838953
0001d0 14 67 01 bd f6 13 5f bd 22 52 3d bd 31 e9 c0 39
       -0.031592444 -0.054462396 -0.046220906 0.00036794835
0001e0 ea 79 ce 3b e9 1d 27 3b 74 dc e2 3d 17 36 e6 bc
       0.0063011544 0.0025500006 0.11077204 -0.028101964
0001f0 fe 29 8d bb d4 f1 9c bc 67 52 dc bd 53 83 2e 3d
       -0.0043079844 -0.019158281 -0.107579045 0.04260571
000200 82 7b bf 3d 65 9d 69 bc ed 10 ad bc 13 a3 d2 bc
       0.09349729 -0.014258717 -0.021126235 -0.025712525
000210 2c a2 be bc 10 d1 2a 3d 15 ea 41 bd 3f f2 bb 3d
       -0.023270689 0.041703284 -0.04734238 0.09177064
000220 31 22 93 bd e1 cd bb 3a 5c 6b bc 3c 61 0b 0c 3c
       -0.07184256 0.0014328324 0.023000412 0.008547635
000230 49 78 68 bb 1d 7f fd bb 02 0b dc bc e8 92 1a bd
       -0.0035472086 -0.0077361003 -0.026860718 -0.037737757
000240 5a 70 ce 3b ce 99 1d 3c d2 5c 4f bc f6 64 63 3d
       0.0063000144 0.009619189 -0.012656407 0.055516206
000250 25 dc e1 3c 80 da 9c bd af 08 2f bd 8d 21 89 bc
       0.027570793 -0.07658863 -0.04273289 -0.016739631
000260 7b f3 37 3c db 6d bd bd aa 15 37 bc 78 f6 9a bc
       0.011227484 -0.09249469 -0.011174599 -0.018916354
000270 dd 87 50 bd 3d e3 fd bc 47 ae db 3c 0b 74 22 3d
       -0.05091082 -0.030992145 0.0268165 0.03966145
000280 97 94 a8 bd e2 76 c1 bd 55 33 f7 3d e0 31 49 bd
       -0.08231466 -0.09446503 0.12070338 -0.04911983
000290 a9 1c 8e 3b dc 39 7a bb 86 79 e3 bb b2 b3 4b 3d
       0.0043369127 -0.003818146 -0.006941977 0.049731918
0002a0 b0 c2 36 bd fe ff 1b 3c a8 ea a5 bb 45 1d 81 3c
       -0.044619262 0.0095214825 -0.0050633736 0.015761027
0002b0 46 ec ab 3b e8 14 09 bd d4 08 5e bb d2 3c e8 bc
       0.005246672 -0.033467203 -0.0033879774 -0.028349314
0002c0 7d 21 c0 bc 11 c9 c4 3b b8 f6 1a bd 4f 45 9d 3d
       -0.023453468 0.0060054143 -0.037832946 0.07679235
0002d0 c6 28 4c 3b dd a2 13 3d 6b f9 21 3d 5a eb 76 bb
       0.0031152233 0.03604399 0.039544504 -0.0037676902
0002e0 17 39 4b 3c f7 7c 7e 3d 2a 49 07 3d b6 a6 1d 3c
       0.012403748 0.062130895 0.03302876 0.0096222665
0002f0 35 87 1d 3d 92 9f 1a 3d 16 d3 c0 3c 02 36 3e 3d
       0.03845902 0.037749834 0.023538154 0.046438225
000300 d3 6b 4e 3d 0b 60 28 3d 4d ae ac bd 9d 51 b6 bd
       0.050395798 0.04110722 -0.08431683 -0.08902285
000310 f8 73 0e be 93 f1 9f bd 3c 66 87 bd 84 4c 6b bc
       -0.13911426 -0.078097485 -0.066112965 -0.014361504
000320 98 a8 3b 3d a8 05 7f bd 76 2e ce bd 4d ab 73 3d
       0.04581508 -0.062261254 -0.100674555 0.059489537
000330 f9 a8 e4 bd a9 5f c3 3c 10 40 10 be cb 77 ea bc
       -0.111650415 0.023849325 -0.14086938 -0.028621575
000340 0d 7e f7 bd 9f 64 94 bd ed 40 70 bc e3 0e 68 bd
       -0.12084589 -0.072457545 -0.014663917 -0.056654822
000350 d3 8c 89 bd 1f a4 c3 bb 5f 60 8b bd 6f 20 ad bd
       -0.06716313 -0.0059704925 -0.06805491 -0.08453452
000360 0f 0b af 3c 11 b5 ff bd e0 58 92 bd 6d d8 c0 3b
       0.021367578 -0.124857076 -0.07145858 0.005885175
000370 1f e9 5f bd ed 26 7b bd 8d 0c 70 3c 4f 5e b6 bd
       -0.05466568 -0.06131642 0.01465143 -0.08904707
000380 0f 98 83 3d 5f d0 18 bc 22 e7 f2 bd a7 eb 98 bd
       0.06425487 -0.009327023 -0.11860491 -0.07466822
000390 8d 9d f9 bc a1 06 92 bd c9 29 9e 3c d3 1b 7f 3d
       -0.030470634 -0.071301706 0.019307034 0.062282395
0003a0 41 83 df bc b3 27 bb bc 94 0e b4 bc af 05 2e bc
       -0.027284266 -0.022846079 -0.021979608 -0.010621472
0003b0 1d ba 6d 3c 01 d1 48 3b 97 28 e8 3c 37 b3 4d bc
       0.014509705 0.0030642154 0.028339667 -0.012554935
0003c0 bb 09 85 bc c2 67 8d 3c 20 2e e8 3c c6 1f 94 bd
       -0.016239991 0.01726139 0.028342307 -0.07232623
0003d0 6e 5a 8b 3d e4 f5 50 3c da 86 f1 bc 86 5e c0 bb
       0.068043575 0.012753937 -0.029483248 -0.005870643
0003e0 91 1d 45 3c 8d b3 82 bd 42 63 15 3d b0 c6 6f bc
       0.012030975 -0.06381903 0.036471613 -0.014634773
0003f0 27 d0 9d 3b d9 49 b0 bd 04 a1 7a 3d 5f 11 ab bc
       0.0048160735 -0.08607835 0.061188713 -0.020882307

upd1.0.bias f4 [64]
000000 05 94 c3 bc d8 c7 b8 bd 62 fd 4c 3d ca 48 86 bd
       -0.023874292 -0.09022492 0.050046332 -0.06556852
000010 68 92 14 bd 16 87 a4 bd c9 1a 4e 3d f6 b9 60 3b
       -0.036272436 -0.08033578 0.050318513 0.003429053
000020 65 cb ba bd 6f 26 71 bb 1b 60 0c bd 7e 1f 9a 3c
       -0.09120826 -0.003679659 -0.03427134 0.018813845
000030 76 1b 38 bc 8c aa d3 3b 86 9c 88 3c b5 e1 2a bd
       -0.011237016 0.0064595398 0.016676199 -0.041719157
000040 3f b5 b6 3d b5 7f 52 3d b3 3f 78 bb 74 db 0d 3c
       0.08921289 0.051391322 -0.0037879765 0.008658279
000050 f2 85 a1 bd 80 da 0c 3c 76 04 e0 bc 85 9c 94 bd
       -0.07886876 0.008597016 -0.027345877 -0.07256416
000060 7d 84 0c bd a9 e0 35 bd 3b 3c 37 bd d2 ea 14 3b
       -0.03430604 -0.044403706 -0.044735175 0.0022722972
000070 c6 dc b9 bd 9e ce ff bc fb f3 62 3c 54 77 17 3d
       -0.09075312 -0.031226452 0.013852115 0.036979035
000080 b2 c3 3f 3c f9 2c 25 bc b9 0c 72 bd 7e ed af bb
       0.011704372 -0.010081523 -0.059094165 -0.0053688874
000090 53 5e 5e 3d 15 f0 30 3c 43 31 cb 3c 68 7a a5 bd
       0.054289173 0.0107994275 0.024803763 -0.08079988
0000a0 3f e4 a9 bc 96 45 44 3c d0 9c 83 bd 4a c1 99 39
       -0.020738719 0.011979481 -0.06426394 0.00029326446
0000b0 fc 37 53 bd f6 ef 4b bc 81 ea 95 3c 30 66 66 bd
       -0.051567063 -0.012447348 0.018300297 -0.056249797
0000c0 f0 42 3f 3d fd 8b d6 bd 02 b1 08 bc ba 5b bb bc
       0.046694696 -0.104759194 -0.008342983 -0.022870887
0000d0 cd 8f 9b bd f6 1a 53 bd 8c b1 85 bd e0 37 82 3c
       -0.07595787 -0.051539384 -0.06528005 0.015895784
0000e0 d6 96 39 bc 28 e4 2e 3d f6 84 7d bd 69 4f 66 3d
       -0.011327466 0.042698056 -0.06189438 0.056228075
0000f0 13 f9 7e bd 80 da 80 bd e0 e9 8e bd 28 1b e1 3c
       -0.062249254 -0.062916756 -0.06978202 0.02747877
